value_search/checkpoints/best_seq.pt (torch, 162771 bytes, 10 tensors)

embedding.weight f4 [5, 32]
0	0xbf8dfe55	-1.1093241
1	0x3e8b58a4	0.27216065
2	0x3faf60fa	1.370147
3	0x3efe3f98	0.49657893
4	0xbf51996c	-0.8187473
5	0xbf6927ec	-0.9107654
6	0xbfa4bc3b	-1.2869943
7	0x3f0d1c5a	0.55121386
8	0xbf71bd1b	-0.9442918
9	0x3fa84cce	1.3148439
10	0x3eba18f3	0.3634716
11	0x3f41c8bf	0.7569694
12	0xbf66ec01	-0.90203863
13	0x3f0fae1e	0.56125057
14	0xbfc9239e	-1.5713995
15	0xbe84c4f1	-0.25931504
16	0x3e36a32d	0.17835684
17	0xbf2ae201	-0.66751105
18	0xbf7b8245	-0.9824565
19	0xbf52c73b	-0.8233525
20	0xbebdd446	-0.37076014
21	0x3f7d086e	0.9884099
22	0xbfad0d6e	-1.3519723
23	0xbf38753c	-0.72053885
24	0x3ed25004	0.41076672
25	0x4019aaca	2.4010491
26	0xbf622fa0	-0.8835392
27	0xbf2de4c6	-0.67927206
28	0xbf15a4ac	-0.58454394
29	0x3dae6e40	0.08517122
30	0x3f002981	0.5006333
31	0xbebbcb2f	-0.36678454
32	0x3f2d974e	0.67809
33	0x3f815598	1.0104246
34	0x3e98f6e3	0.2987586
35	0xbd062735	-0.032752234
36	0x3f827d29	1.0194446
37	0x3deb2d7f	0.11483287
38	0x3f8b3d7a	1.0878136
39	0x3eac66f0	0.33672285
40	0x3ff04152	1.8769934
41	0x3fe861fc	1.8154902
42	0xbfcad532	-1.5846312
43	0x3f80eaac	1.0071616
44	0xbfb75c9c	-1.4325137
45	0x3fb43956	1.4079998
46	0xbe11a40a	-0.14222732
47	0x3eef79ed	0.4677271
48	0xbee63724	-0.44963944
49	0x3f24c58b	0.64363927
50	0xbe8d5dec	-0.2761072
51	0x3e629f3e	0.22131059
52	0x3f0bbbbd	0.5458334
53	0x3fa74a68	1.3069582
54	0x3f23bfec	0.63964725
55	0x3f76e133	0.96437377
56	0x3edc79c6	0.43061656
57	0xbe60d5c4	-0.21956545
58	0xbf1178c7	-0.56824917
59	0x3dbcc9bd	0.09218166
60	0x3fe33b26	1.7752426
61	0xbfa616a4	-1.2975659
62	0x3f01dee0	0.50730705
63	0x3f7680f4	0.96290517
64	0x00000000	0.0
65	0x00000000	0.0
66	0x00000000	0.0
67	0x00000000	0.0
68	0x00000000	0.0
69	0x00000000	0.0
70	0x00000000	0.0
71	0x00000000	0.0
72	0x00000000	0.0
73	0x00000000	0.0
74	0x00000000	0.0
75	0x00000000	0.0
76	0x00000000	0.0
77	0x00000000	0.0
78	0x00000000	0.0
79	0x00000000	0.0
80	0x00000000	0.0
81	0x00000000	0.0
82	0x00000000	0.0
83	0x00000000	0.0
84	0x00000000	0.0
85	0x00000000	0.0
86	0x00000000	0.0
87	0x00000000	0.0
88	0x00000000	0.0
89	0x00000000	0.0
90	0x00000000	0.0
91	0x00000000	0.0
92	0x00000000	0.0
93	0x00000000	0.0
94	0x00000000	0.0
95	0x00000000	0.0
96	0x3f1a5a36	0.602939
97	0x3fd91f23	1.6962627
98	0x3ed1dd6e	0.4098925
99	0xbf4201a4	-0.75783753
100	0x3f90639d	1.12804
101	0x3eb91365	0.3614761
102	0xbfb5607b	-1.4170069
103	0x3f3abb82	0.72942364
104	0x3fcfdd25	1.6239363
105	0x3e94a656	0.29033154
106	0xbdd6758e	-0.104716405
107	0xbf1d57ac	-0.614619
108	0x3f0bc1be	0.545925
109	0xbf03f1a6	-0.515406
110	0xbf9f6918	-1.2453947
111	0xbf83eff7	-1.0307606
112	0x3ef41c1e	0.47677702
113	0x3f609e88	0.877419
114	0xbf83c943	-1.0295795
115	0x401d8575	2.4612706
116	0xbf85ed0e	-1.0462968
117	0x3fc247f0	1.5178204
118	0x3f164257	0.58694977
119	0x3f0e1c7f	0.5551223
120	0x3e2bee18	0.16790044
121	0x3ef035f3	0.4691616
122	0x3f1cd1f3	0.6125786
123	0xbf8ef842	-1.1169512
124	0xbe7e3432	-0.24824598
125	0xbf5ca676	-0.861915
126	0x3e4ccd55	0.20000203
127	0xbf8b5b50	-1.0887241
128	0x3f938e71	1.1527845
129	0xbed36aac	-0.41292322
130	0x3c53fb09	0.012938269
131	0x3e8f5bb0	0.2799964
132	0xbf82ffb7	-1.0234288
133	0x3f72e2d6	0.94877374
134	0xbe9ef2ed	-0.31044713
135	0x3f8052ef	1.0025309
136	0xbf3f3780	-0.7469406
137	0x3f3d34e6	0.7390884
138	0x3e8abfd0	0.27099466
139	0xbc1943b5	-0.0093545215
140	0x3ee01b62	0.4377089
141	0xbf91467c	-1.1349635
142	0xbe4ec4af	-0.20192216
143	0xbee5782b	-0.44818243
144	0xbf92a8bb	-1.1457742
145	0x3f1946ab	0.59873456
146	0xbe8b5b47	-0.27218077
147	0xc00624a1	-2.0959857
148	0x3f172314	0.590379
149	0xbecc4e42	-0.39903456
150	0xbcb5ca75	-0.022191266
151	0xbeaedfdc	-0.34155166
152	0x3fa819e9	1.3132907
153	0xbf8231f2	-1.0171492
154	0xbf731a50	-0.94962025
155	0x3f67d081	0.90552527
156	0x3faa261b	1.3292879
157	0x3fc76e5a	1.5580552
158	0x3f2e7599	0.6814819
159	0xbedba000	-0.42895508

conv.0.weight f4 [64, 32, 3]
0	0x3df78949	0.12086732
1	0x3c415db9	0.01180213
2	0x3da70063	0.08154371
3	0xbd92ed00	-0.071741104
4	0xbe645fae	-0.22302124
5	0x3e0ab9c3	0.13547425
6	0x3ddd0b32	0.10793151
7	0xbc25168c	-0.010076176
8	0x3d91cd25	0.07119206
9	0x3d1a2991	0.037637297
10	0xbd7f0ff9	-0.062271092
11	0x3dfd18f5	0.12358276
12	0x3e10fdf5	0.14159377
13	0x3c803b6e	0.015653338
14	0xbdc121fe	-0.094303116
15	0x3dd2aae2	0.102864996
16	0x3b045213	0.0020190522
17	0xbe8c7101	-0.27429965
18	0xbeadd3ab	-0.33950552
19	0xbe13bdfe	-0.14427945
20	0xbd00a018	-0.031402677
21	0xbd823c07	-0.063591056
22	0x3db26649	0.087109156
23	0x3dd51899	0.10405082
24	0xbe7fc621	-0.24977924
25	0x3cef0664	0.029177852
26	0x3d838e83	0.06423666
27	0x3cf2fc00	0.029661179
28	0xbdc03504	-0.09385112
29	0x3d9559c7	0.07292514
30	0x3d5d4f99	0.05403099
31	0x3d079b40	0.033107042
32	0x3c919767	0.01777239
33	0x3e0cbf49	0.13744844
34	0x3e71cd3f	0.23613451
35	0xbe31f786	-0.17379579
36	0x3d84ebcc	0.06490287
37	0x3e83a1df	0.25709435
38	0x3bd9b720	0.0066441447
39	0x3e61f38e	0.22065565
40	0xbc983d27	-0.018583847
41	0x3dda5122	0.10660006
42	0xbe56ca32	-0.20975569
43	0xbc57eb81	-0.013178707
44	0xbda6c937	-0.081438474
45	0xbb7075cc	-0.0036691306
46	0x3d16932a	0.03676144
47	0xbea47182	-0.3211785
48	0x3ddc619c	0.10760805
49	0xbe503b97	-0.20335232
50	0x3e0678c4	0.13132006
51	0xbe5085b1	-0.20363499
52	0x3e2fa63a	0.17153254
53	0x3c881465	0.016611287
54	0xbd96910b	-0.073518835
55	0x3dff0b33	0.12453308
56	0xbc4cf9d6	-0.012510737
57	0xbdf62d28	-0.120203316
58	0xbd5f90c6	-0.054581426
59	0xbd24edb1	-0.040265743
60	0xbe6cd7b7	-0.23129164
61	0xbd76cb4f	-0.060252484
62	0x3c5e9c6f	0.013587101
63	0xbe26a5a7	-0.16274129
64	0xbc8f3fb6	-0.017486434
65	0x3b0d8bdf	0.0021598262
66	0xbe637023	-0.22210746
67	0xbdb07155	-0.08615366
68	0xbd9dbe71	-0.077023394
69	0xbeb97a2b	-0.3622602
70	0xbdc2bd90	-0.095088124
71	0x3d988467	0.07447129
72	0x3d6f8546	0.05847671
73	0x3e9d9f4b	0.30785593
74	0x3cc50be1	0.024053516
75	0x3da0f944	0.07860044
76	0xbdda6709	-0.10664184
77	0x3e535cdf	0.20640896
78	0x3dde3c87	0.108513884
79	0xbe000e90	-0.12505555
80	0x3d9e72a5	0.077367105
81	0x39f9904b	0.00047600488
82	0x3e89a877	0.2688634
83	0xbd0f9ceb	-0.035061758
84	0x3e218c85	0.1577626
85	0xbcadcf83	-0.021217113
86	0xbe1fe1a8	-0.15613425
87	0x3e170ecd	0.1475174
88	0xbd6a399d	-0.05718385
89	0xbcd67087	-0.026176704
90	0x3e618bf3	0.22026043
91	0x3dad3605	0.08457569
92	0xbdc9c1ad	-0.09851394
93	0xbdabf041	-0.08395434
94	0x3e42ceb6	0.19024166
95	0xbdd82f0e	-0.1055585
96	0xbe75b50d	-0.23994847
97	0xbe0120b4	-0.12610132
98	0x3c5a9ead	0.013343495
99	0xbdc59325	-0.09647206
100	0x3bc3f61f	0.0059802677
101	0xbddfa745	-0.10920576
102	0x3c641d84	0.013923053
103	0x3daa70c8	0.083222926
104	0x3d50a783	0.050941
105	0xbc959cf0	-0.01826331
106	0xbe0652a8	-0.13117468
107	0x3e1d77a8	0.15377676
108	0xbda4bc82	-0.080437675
109	0xbdbd8bdc	-0.09255192
110	0xbd7abb63	-0.061213862
111	0xbd98c3b7	-0.07459205
112	0x3e038c79	0.12846555
113	0x3c176d2a	0.009242335
114	0x3e8e22b5	0.27760854
115	0xbe349658	-0.17635477
116	0xbc217ed3	-0.009856897
117	0xbe5a8f3c	-0.21343702
118	0xbd77e2d5	-0.06051906
119	0x3e03e3f9	0.12879933
120	0x3e6dfdd7	0.23241363
121	0xbd45c309	-0.048281703
122	0xbe470518	-0.19435537
123	0x3e31dc97	0.17369305
124	0xbdfdef44	-0.12399152
125	0xbd5ebc5c	-0.054378852
126	0xbd90aa43	-0.07063725
127	0x3cb4f922	0.022091452
128	0x3d1729ae	0.036904983
129	0x3e54256a	0.20717397
130	0xbe1e444f	-0.15455745
131	0x3dca7384	0.09885314
132	0x3c6ab83f	0.014326154
133	0x3dbc6d1d	0.09200499
134	0x3d80704f	0.06271421
135	0x3da6e1ad	0.08148513
136	0x3d6f5340	0.058429003
137	0xbe51bccf	-0.20482181
138	0x3dc854da	0.09781809
139	0xbdaf2f6e	-0.08553968
140	0xbb946bb2	-0.00452944
141	0x3c473420	0.012158424
142	0xbc3153ec	-0.010823231
143	0x3e126d5b	0.14299528
144	0xbe142727	-0.1446806
145	0x3d27caeb	0.040965002
146	0x3cd1f46a	0.025629241
147	0x3d97dc3a	0.07415052
148	0x3e0d60f3	0.13806514
149	0x3d31cf25	0.04341044
150	0xbcdde928	-0.027088717
151	0x3cd01862	0.025402252
152	0xbd1fb986	-0.03899529
153	0xbd66d2fe	-0.05635356
154	0xbde7ad4e	-0.11312352
155	0xbdc191d0	-0.0945164
156	0x3dfae9fe	0.12251662
157	0x3b9d09ac	0.0047924127
158	0x3d67ac74	0.05656095
159	0xbd373835	-0.044731338
160	0x3d890b15	0.06691567
161	0xbe8ea554	-0.2786051
162	0x3e23d224	0.15998131
163	0xbd2d884f	-0.042366322
164	0xbe173aa5	-0.14768465
165	0x3df03cde	0.117303595
166	0xbd8ec1db	-0.06970569
167	0xbdbe04dc	-0.092782706
168	0xbe2246db	-0.15847342
169	0xbe03cd54	-0.12871295
170	0x3d60caf9	0.05488107
171	0xbe808585	-0.25101867
172	0x3cd900a2	0.02648956
173	0xbe0d650b	-0.13808076
174	0xbd570b6f	-0.05250114
175	0x3d1e916a	0.038712896
176	0x3d933d4b	0.07189425
177	0x3eb1d47a	0.3473242
178	0x3cd50291	0.0260022
179	0x3e2197db	0.15780585
180	0x3e2d2152	0.16907242
181	0x3c0353f2	0.00801562
182	0xbdabb4ad	-0.083840705
183	0x3de5129f	0.11185192
184	0x3e37e272	0.17957476
185	0x3e838d57	0.2569377
186	0xbe5f53e3	-0.21809344
187	0xbcf12476	-0.029436331
188	0xbde76819	-0.11299152
189	0x3d8e2c04	0.06941989
190	0xbdd6254b	-0.10456332
191	0x3d81bc70	0.0633477
192	0xbe430f3e	-0.19048783
193	0x3cdfbb56	0.027311008
194	0xbd8aa157	-0.067690544
195	0xbc001380	-0.007817149
196	0x3e1e2d75	0.15447028
197	0xbd83a431	-0.064278014
198	0x3d89ab1a	0.06722088
199	0x3d80a6b3	0.06281795
200	0x3e0611eb	0.13092773
201	0xbdb2afb9	-0.08724923
202	0x3c854f6a	0.01627322
203	0x3e51307e	0.20428655
204	0x3e3bda19	0.18344916
205	0xbd7a9808	-0.061180145
206	0xbdd894b2	-0.105752364
207	0xbe830f38	-0.25597548
208	0xbd43ed12	-0.04783351
209	0xbc50ee43	-0.0127521185
210	0x3dfbd496	0.12296407
211	0x3e3ba873	0.18325977
212	0xbea3834a	-0.31936103
213	0x3e492f6a	0.19646993
214	0x3e05e047	0.13073836
215	0xbd3bb0a1	-0.045822743
216	0xbcb25aee	-0.021771874
217	0xbe196dcb	-0.14983289
218	0xbe78c7f2	-0.24295023
219	0x3db4d0d6	0.08828895
220	0xbe0e1428	-0.13874876
221	0xbbfe9ed6	-0.0077703996
222	0xbdec1be6	-0.11528759
223	0xbd6af024	-0.057357922
224	0x3e047799	0.12936248
225	0xbe2f7212	-0.17133358
226	0x3e934330	0.28762197
227	0x3e2eeda2	0.17082837
228	0xbd919852	-0.07109131
229	0xbd830c65	-0.063988484
230	0xbdf4f8c1	-0.119615085
231	0x3c16368b	0.0091682775
232	0x3c95defd	0.018294806
233	0xbd762deb	-0.060102385
234	0x3dd29693	0.10282626
235	0xbe39850b	-0.18117158
236	0x3dcc6044	0.09979299
237	0xbda6c4c7	-0.08143001
238	0x3e6f3a7a	0.23362151
239	0x3e1ed808	0.15512097
240	0x3ddb5271	0.10709084
241	0x3c4a8e3d	0.012363014
242	0xbd7e6934	-0.06211205
243	0x3cf0532e	0.029336538
244	0xbd0f9b30	-0.035060108
245	0xbe2779da	-0.16355076
246	0x3ceb50c7	0.028725041
247	0xbe3b24d3	-0.18275766
248	0x3e6f6884	0.23379713
249	0x3e8a7de8	0.27049184
250	0xbd36bb45	-0.044612188
251	0xbe309410	-0.17243981
252	0xbdd00daa	-0.10158856
253	0x3e28740d	0.1645052
254	0xbda1763b	-0.07883879
255	0xbbbcc2d5	-0.0057605305

conv.0.bias f4 [64]
0	0xbc5045ed	-0.012711984
1	0xbd985721	-0.074384935
2	0xbd233186	-0.03984215
3	0xbc5b7a5d	-0.013395873
4	0xbcd0f8cb	-0.025509259
5	0xbd8c70a6	-0.068574235
6	0xbc818a4a	-0.015813012
7	0xbcdcde97	-0.026961608
8	0xbc0bae4b	-0.008525441
9	0xbce6eee4	-0.028190084
10	0x3c99c82a	0.018772203
11	0xbce477d3	-0.027889168
12	0xbcc9eef5	-0.024650076
13	0xbc52d2f1	-0.012867675
14	0xbdd31f77	-0.10308736
15	0xbdc45708	-0.095869124
16	0xbcd0212e	-0.025406446
17	0xbc6ee70e	-0.014581455
18	0xbca5a534	-0.020220377
19	0xbc819e8a	-0.015822668
20	0xbcc830d9	-0.024437355
21	0xbc9c113b	-0.019051185
22	0xbcb7cbc8	-0.022436038
23	0xbbe02275	-0.006840045
24	0xbe2313ff	-0.15925597
25	0xbb053edf	-0.0020331664
26	0xbc3f578a	-0.011678586
27	0xbc9a8b33	-0.018865203
28	0xbcadd3d6	-0.021219175
29	0xbbe5c113	-0.0070115416
30	0xbbe165b8	-0.006878581
31	0xbcf6508b	-0.030067703
32	0x3cc5ca9d	0.024144465
33	0xbd0cb46f	-0.034351762
34	0xbcbb0679	-0.022830235
35	0xbcdb305d	-0.02675646
36	0xbcbe59de	-0.023236211
37	0x3d0f1568	0.034932524
38	0xbce7ea89	-0.028310077
39	0xbd094df8	-0.033521622
40	0xbcd038d6	-0.025417726
41	0x3d87aadb	0.06624385
42	0xbcaa13c8	-0.020761386
43	0xbbd3f463	-0.006468342
44	0xbd1d2247	-0.038362768
45	0xbc846788	-0.016162649
46	0xbcf055b6	-0.029337745
47	0xbdcd5f3e	-0.10027932
48	0xbd11eb28	-0.035624653
49	0xbc91885a	-0.017765213
50	0xbcee4c60	-0.029089153
51	0xbcab0b2d	-0.020879352
52	0xbcf45b1f	-0.029828606
53	0xbc5fb177	-0.013653151
54	0xbcc59336	-0.024118047
55	0xbc81987d	-0.015819782
56	0xbd27f724	-0.041007176
57	0xbcd7ba3c	-0.02633392
58	0xbcd4b6e9	-0.025966125
59	0xbd8a6184	-0.06756881
60	0xbcec077c	-0.028812163
61	0xbc95dd4a	-0.018293995
62	0x3deff607	0.11716848
63	0xbb3c8f7e	-0.0028772051

conv.3.weight f4 [64, 64, 3]
0	0xbd60fb08	-0.054926902
1	0xbda06848	-0.0783239
2	0x395c4d8e	0.00021009726
3	0x3e129a16	0.14316592
4	0x3d0d5df7	0.03451344
5	0x3da0e313	0.07855811
6	0x3d922935	0.07136766
7	0xbdb130af	-0.08651864
8	0x3e1c7d17	0.15282093
9	0xbd830fe7	-0.063995175
10	0x3d6756ff	0.05647945
11	0x3e7ad4ab	0.24495189
12	0xbd3641fa	-0.044496514
13	0x3cccc407	0.024995817
14	0x3db0a009	0.08624274
15	0xbdc26f77	-0.094939165
16	0x3cea61b9	0.02861105
17	0x3d2ff427	0.04295745
18	0x3d260c51	0.04053909
19	0xbc86fb0b	-0.016477128
20	0xbd333061	-0.04374731
21	0x3e4a80fa	0.19775763
22	0x3c971032	0.01844034
23	0xbcff7551	-0.03118387
24	0xbca641ce	-0.02029505
25	0x3c544453	0.012955743
26	0xbd7db63a	-0.061941363
27	0xbceb7250	-0.028741032
28	0xbcdc390b	-0.026882669
29	0x3dcadd9b	0.09905549
30	0xbe1d34a8	-0.15352118
31	0x3d627032	0.05528278
32	0x3a9c8db2	0.0011944084
33	0xbcc7c5b1	-0.024386259
34	0x3e080133	0.13281707
35	0xbcdb0860	-0.026737392
36	0x3e03bf33	0.12865905
37	0xbd116c2f	-0.035503563
38	0xbd998731	-0.07496489
39	0xbd8b2762	-0.06794621
40	0xbd907094	-0.070527226
41	0x3dbf48c7	0.09340053
42	0x3d2eb776	0.04265543
43	0x3d4d227b	0.05008171
44	0x3c8b6237	0.017014606
45	0x3bb8dc5b	0.005641503
46	0x3d5df45f	0.05418813
47	0x3e00b7de	0.1257014
48	0x3da391d7	0.07986801
49	0x3d73e252	0.059542008
50	0xbc65a483	-0.014016273
51	0xbe4b1ba6	-0.19834766
52	0xbe0e41f0	-0.1389234
53	0xbc7901d2	-0.015198188
54	0xbd727aba	-0.059199072
55	0x3d47bb4c	0.048762605
56	0x3e05aa17	0.13053165
57	0x3d0a3966	0.033746146
58	0x3d311fe0	0.04324329
59	0xbe009e56	-0.125604
60	0xbc003abe	-0.007826505
61	0x3c717c6b	0.014739136
62	0xbe4abbf6	-0.19798264
63	0xbe2b06be	-0.1670179
64	0x3db58baa	0.088645294
65	0x3e06f609	0.13179792
66	0x3d8a85cc	0.06763801
67	0x3dbf2da2	0.09334876
68	0xbd61f50a	-0.055165328
69	0x3ce082b7	0.02740608
70	0x3a888c07	0.0010417708
71	0x3d0c2b35	0.034220893
72	0xbb30739c	-0.0026924377
73	0xbe517025	-0.20452936
74	0xbce42e96	-0.027854245
75	0xbd73fa03	-0.0595646
76	0x3ccbec38	0.024892911
77	0x3c8fb0ec	0.017540418
78	0x3e0c17c3	0.1368094
79	0xbe2e3f4e	-0.17016336
80	0xbd0d39ae	-0.034478836
81	0xbd14665f	-0.03623044
82	0xbd96a035	-0.07354776
83	0x3e0f0d6a	0.13969961
84	0x3e892989	0.267895
85	0xbcd7211b	-0.026260903
86	0x3da37907	0.079820685
87	0x3d0b2c26	0.03397765
88	0x3db2f2f4	0.08737746
89	0xbde81f57	-0.113341026
90	0xbdb62b7d	-0.088950135
91	0xbd60a431	-0.054844085
92	0xbd124595	-0.03571089
93	0x3e37c776	0.17947182
94	0x3d96646d	0.073433734
95	0xbc69bcfb	-0.014266248
96	0x3cb4cac9	0.022069352
97	0x3d025b88	0.031825572
98	0xbca10d99	-0.019659804
99	0xbd4093c3	-0.047015917
100	0xbde05906	-0.1095448
101	0xbd8f4f01	-0.06997491
102	0xbd9387d7	-0.07203644
103	0x3d3f2857	0.04666933
104	0xbc0eba75	-0.008711447
105	0x3d02ad66	0.031903647
106	0xbd80ab22	-0.06282641
107	0x3c9a61ad	0.018845404
108	0xbc25453c	-0.010087308
109	0x3c36f414	0.011166591
110	0xbdeec377	-0.11658376
111	0xbbc5922d	-0.0060293884
112	0xbdaf941b	-0.08573171
113	0xbd47ff6c	-0.048827574
114	0x3c9b55cf	0.018961815
115	0xbce2fcc4	-0.027708419
116	0x3e3752b0	0.17902637
117	0xbd9a4c0e	-0.075340375
118	0xbe1fe19a	-0.15613404
119	0xbd92a9c7	-0.07161289
120	0xbccd116b	-0.02503272
121	0xbda975de	-0.082744345
122	0xbc8b2083	-0.016983276
123	0xbd8c1cb0	-0.06841409
124	0xbd8acdf4	-0.06777564
125	0xbd0c9191	-0.03431851
126	0x3e321639	0.1739129
127	0xbe014411	-0.12623622
128	0x3c8c8915	0.01715521
129	0x3d74168a	0.059591807
130	0x3c67a32a	0.014138022
131	0x3da1c73e	0.078993306
132	0xbe212584	-0.15736967
133	0xbb3eb146	-0.0029097362
134	0xbd62a871	-0.05533642
135	0x3cb6b071	0.02230093
136	0x3d60748f	0.05479866
137	0xbd037d1b	-0.03210173
138	0xbcf8e321	-0.030381741
139	0x3c9f85b3	0.019472932
140	0x3d4a51cb	0.04939441
141	0x3d4cd4fb	0.0500078
142	0xbd0cab91	-0.034343306
143	0x3d24d332	0.040240474
144	0x3ce84dad	0.028357351
145	0x3c20e492	0.00982012
146	0x3db31b08	0.0874539
147	0xbdcb4035	-0.09924356
148	0xbd884611	-0.06653989
149	0x3b9d3506	0.0047975807
150	0x3e5b161e	0.21395156
151	0x3e0a90ca	0.13531795
152	0xbd6b4232	-0.057436176
153	0x3d9e4eb9	0.07729859
154	0xbd10226d	-0.03518908
155	0xbe02bd6b	-0.1276757
156	0xbe295f1d	-0.16540189
157	0x3b1c848b	0.0023882713
158	0x3da4ac65	0.08040694
159	0x3d62db9c	0.055385217
160	0x3d059e47	0.03262165
161	0xbe3dd358	-0.18537652
162	0xbdd8f233	-0.10593071
163	0xbdc1d2eb	-0.094640575
164	0x3d5afc7b	0.05346344
165	0x3de9be31	0.11413229
166	0x3cc71b20	0.024304926
167	0x3ca5314a	0.020165104
168	0xbce4a0cd	-0.027908707
169	0xbdd7ce8a	-0.10537441
170	0xbcae84d2	-0.021303568
171	0xbd04c065	-0.032410044
172	0x3d2b2f8a	0.041793384
173	0x3baae289	0.0052149934
174	0x3bef115e	0.0072957715
175	0x3dbc481f	0.091934435
176	0x3dbeb5d7	0.09312027
177	0x3e01c092	0.12671116
178	0xbdc22f57	-0.094816856
179	0x3d9d3657	0.0767638
180	0xbd34da80	-0.04415369
181	0xbb8e590a	-0.0043441104
182	0x3d22c141	0.039735083
183	0xbd47db7b	-0.048793297
184	0xbdceadab	-0.10091718
185	0x3be50e0d	0.0069902004
186	0xbc1298cb	-0.0089475615
187	0xbd5602cd	-0.052248765
188	0xbd1cb922	-0.038262494
189	0x3e1203f3	0.14259319
190	0x3d2d958a	0.04237894
191	0x3cce47b7	0.02518068
192	0x3d26fa2d	0.04076593
193	0xbe2be646	-0.16787061
194	0xbd7ef5e3	-0.062246215
195	0x3c9e3fdb	0.019317558
196	0x3d19cc24	0.0375482
197	0x3d7538a0	0.059868455
198	0x3e065bac	0.13120908
199	0xbe17249a	-0.14760056
200	0xbd2ae096	-0.041718088
201	0xbd3fc19c	-0.0468155
202	0xbd8799cd	-0.06621132
203	0xbcc1a7e3	-0.023639625
204	0xbcb2ff82	-0.021850351
205	0xbd314092	-0.04327447
206	0x3bd99de8	0.0066411383
207	0x3d29844a	0.041385926
208	0x3e0d6e13	0.13811521
209	0x3b7080a2	0.0036697765
210	0xbd705490	-0.058674395
211	0x3c98cc13	0.018651998
212	0xbe1f233a	-0.15540782
213	0x3cfb6b69	0.030690866
214	0x3e28ea68	0.16495669
215	0x3e00ac87	0.12565814
216	0x3d14752c	0.036244556
217	0xbd15a634	-0.036535457
218	0x3cb29885	0.021801243
219	0x3d1fbeb3	0.039000224
220	0xbe2857dd	-0.16439767
221	0x3dbc9771	0.09208573
222	0x3bed0d08	0.0072342195
223	0x3dc97857	0.09837406
224	0x3e3ec9c6	0.18631658
225	0x3d6f31a9	0.05839697
226	0x3e209c8c	0.15684718
227	0x3dbc0a22	0.0918162
228	0x3de545fc	0.11194989
229	0x3da5db72	0.080984965
230	0xbc7f07b0	-0.015565798
231	0xbe0646cc	-0.13112944
232	0xbd6d7c74	-0.057980016
233	0x3c4299c3	0.01187748
234	0x3d928918	0.07155055
235	0xbbb92501	-0.005650163
236	0x3db7be52	0.089718476
237	0x3c61291e	0.013742713
238	0xbd0a1979	-0.0337157
239	0xbdb491a4	-0.08816841
240	0xbb8cd67c	-0.0042980295
241	0xbdf1fa0c	-0.11815271
242	0x3ce4dee0	0.027938306
243	0xbd4cfdf6	-0.050046884
244	0xbe4866b0	-0.19570422
245	0x3deedc77	0.11663144
246	0xbe12e765	-0.14346083
247	0x3cbc56a2	0.022990528
248	0xbde65bce	-0.11247979
249	0xbe17d35c	-0.14826721
250	0x3a996c44	0.0011705239
251	0xbd74359e	-0.059621446
252	0x3c40d943	0.011770549
253	0x3c8b4ae5	0.017003486
254	0x3cf8d118	0.030373141
255	0xbc0e4d51	-0.008685426

conv.3.bias f4 [64]
0	0xbbd651c8	-0.006540511
1	0x3b2cbb64	0.002635681
2	0x3ae7d3f7	0.0017687072
3	0xbd04c202	-0.032411583
4	0xbc57e6bf	-0.013177573
5	0x3b99c9f7	0.0046932655
6	0xbc0c411c	-0.008560445
7	0xbbdf471f	-0.006813898
8	0x3b9a6a40	0.004712373
9	0xbdd6ea3f	-0.10493898
10	0xbda2dc4a	-0.07952173
11	0xbd2385fa	-0.039922692
12	0xbbf9095f	-0.007599994
13	0xba3b07eb	-0.0007134664
14	0x3c6f8318	0.0146186575
15	0xbb6dbdd9	-0.0036276488
16	0x3b0d68cb	0.0021577354
17	0xbdc8be8f	-0.09801971
18	0xbd3c274e	-0.04593592
19	0xbd86461c	-0.06556341
20	0xb983f89d	-0.00025171498
21	0xbc0c5d33	-0.008567142
22	0xbca1e48e	-0.019762304
23	0xb5eb5969	-1.7534886e-06
24	0xbb3fb472	-0.002925184
25	0xbb74a391	-0.0037328938
26	0x3c02cc55	0.007983287
27	0x3b962a93	0.004582712
28	0x3b519306	0.0031978502
29	0xb9f738e5	-0.000471539
30	0xaa602da0	-1.9911026e-13
31	0xbbee375c	-0.007269783
32	0xbd7ae018	-0.06124887
33	0xbb648b29	-0.0034872985
34	0x3bb464c6	0.005505177
35	0xba27e5c4	-0.0006404782
36	0xbbec4a9c	-0.0072110426
37	0x3ae00d66	0.0017093837
38	0xbd9c8989	-0.0764342
39	0x3ac4eb65	0.0015023766
40	0xbbefacdb	-0.007314307
41	0x3db6094b	0.08888491
42	0x3ba62b96	0.005071114
43	0x3b9a9b5b	0.004718227
44	0xbb4c4649	-0.0031169823
45	0xbb842da0	-0.0040337592
46	0xbd768a81	-0.06019068
47	0xbb12b30b	-0.002238455
48	0x3bc32de5	0.005956399
49	0xbb71f248	-0.0036918093
50	0xbd387453	-0.04503281
51	0xbcaae48c	-0.020860933
52	0xbc8f6186	-0.017502557
53	0xbbd3281b	-0.00644399
54	0xbd554ed8	-0.052077144
55	0xbd0ee1ea	-0.034883417
56	0x3ae4f19e	0.0017467027
57	0xbd437120	-0.047715306
58	0x3ba8d482	0.005152286
59	0xbccfc2d7	-0.025361462
60	0xbbe6e24e	-0.0070460206
61	0xbd631731	-0.05544204
62	0xbb9f5917	-0.0048629153
63	0x3b77f6dd	0.003783635

conv.6.weight f4 [64, 64, 3]
0	0x3dfbead2	0.12300648
1	0x3c8aa11d	0.016922528
2	0xbdd7d7ff	-0.10539245
3	0x3e598cd9	0.21245135
4	0x3c11548d	0.008870256
5	0x3d8efdc6	0.06981997
6	0xbcde2ade	-0.02712005
7	0x3e0789c5	0.13236149
8	0xbdfd5ab5	-0.123708166
9	0xbe0aee81	-0.13567545
10	0x3d6441d3	0.055726837
11	0xbdb0ccc9	-0.0863281
12	0xbc980d82	-0.018561129
13	0x3e080848	0.13284409
14	0x3dd8c5af	0.1058458
15	0x3c86f4be	0.016474124
16	0x3dc8382e	0.097763404
17	0x3c6fd9af	0.014639302
18	0x3b706e89	0.0036686978
19	0x3e0407e8	0.12893641
20	0xb9712c7c	-0.00023000123
21	0x3e2fd4d8	0.17171037
22	0xbd0f0e58	-0.03492579
23	0x3db0ea53	0.08638444
24	0x3b80726d	0.0039198906
25	0x3e235e12	0.15953854
26	0x3dc99d2e	0.09844433
27	0x3df127db	0.1177518
28	0x3e0613f6	0.13093552
29	0x3df08b6e	0.11745344
30	0x3dbd649a	0.09247704
31	0x3db9e7e4	0.09077433
32	0x3dde3659	0.1085021
33	0x3de1ced0	0.110257745
34	0x3d4c46c0	0.04987216
35	0x3d58eeb9	0.05296204
36	0x3c9fc5d2	0.019503508
37	0x3d7d35fe	0.06181907
38	0x3c5dfa20	0.013548404
39	0xbd3d045d	-0.04614674
40	0xbcc1a0c3	-0.023636227
41	0x3d31051e	0.04321777
42	0x3e1f082d	0.15530463
43	0xbdb56918	-0.08857936
44	0xbb595f70	-0.0033168457
45	0x3dbbd8fb	0.09172245
46	0xbe21bba1	-0.15794231
47	0xbd50fc0f	-0.05102163
48	0x3ce325c9	0.027727978
49	0xbc1858e5	-0.009298538
50	0x3dd9a305	0.10626797
51	0xbd16b3e0	-0.036792636
52	0x3dcc2a7d	0.099690415
53	0x3d9b7a5f	0.075917
54	0xbd8dec44	-0.0692983
55	0xbe0268c5	-0.12735279
56	0xbdb1092b	-0.08644327
57	0x3e0755f3	0.13216381
58	0x3e4f66a5	0.20254
59	0x3d8d4538	0.06897968
60	0x3e051f68	0.13000262
61	0x3d9ee995	0.07759396
62	0xbd1a7e71	-0.03771824
63	0x3e4bc471	0.19899155
64	0x3dda1c0c	0.10649881
65	0x3daf8bdd	0.08571599
66	0x3db31b96	0.08745496
67	0x3e034cc7	0.12822257
68	0x3e091fc8	0.1339103
69	0x2d609948	1.2766961e-11
70	0x2d2d628c	9.855793e-12
71	0x2cf83adc	7.0551186e-12
72	0x3dc82f51	0.0977465
73	0x3da972b5	0.08273832
74	0xbcb166c6	-0.021655452
75	0x3db567fd	0.08857725
76	0x3e31e01f	0.17370652
77	0x3e763c3c	0.24046415
78	0xbd83c78b	-0.06434544
79	0x3d8d3a42	0.068958774
80	0x3d76c78a	0.06024889
81	0x3e55096b	0.20804374
82	0xbd468912	-0.048470564
83	0x3dc4b598	0.09604949
84	0x3e0829ec	0.13297242
85	0x3dab3b70	0.08360946
86	0xbc451ce7	-0.012030817
87	0xbd5c9626	-0.05385413
88	0x3ca5a73e	0.020221349
89	0x3d877387	0.06613832
90	0xa68012d8	-8.886892e-16
91	0xa62fd0e5	-6.0998427e-16
92	0xa40fa2cd	-3.114608e-17
93	0x3df9f74e	0.12205373
94	0x3e141482	0.14460948
95	0x3d70c26d	0.05877917
96	0xbdab5f8b	-0.08367833
97	0x3cd36429	0.025804596
98	0x3c1a8d4a	0.0094331
99	0x3e0dfbca	0.13865581
100	0x3d2de0d1	0.04245073
101	0xbc6412cf	-0.0139205
102	0xbce2d39b	-0.027688792
103	0x3d8f251c	0.069895
104	0x3cf3d078	0.029762492
105	0x3dbb0170	0.091311336
106	0x3dab8ecd	0.083768465
107	0x3c0dd5dd	0.008656946
108	0xbd3c6993	-0.04599912
109	0x3dc49f31	0.09600676
110	0x3df85cf7	0.12127107
111	0x3d96af88	0.07357699
112	0x3d7d7c63	0.061886203
113	0xbe0e39fd	-0.13889308
114	0xbc750f3e	-0.014957247
115	0xbdc42d53	-0.095789574
116	0xbd99a2aa	-0.07501729
117	0xbe2cc01b	-0.16870157
118	0x3e4fac5c	0.20280594
119	0x3df57518	0.119852245
120	0x3de6c738	0.11268467
121	0xbc6a92bc	-0.014317211
122	0x3c86c376	0.016450625
123	0xbe34d6a4	-0.17660004
124	0xbe30f430	-0.1728065
125	0xbe103f17	-0.14086567
126	0x3aa7155d	0.0012747456
127	0x3d85c749	0.06532151
128	0x3d9e93a1	0.07743002
129	0x3e61d477	0.22053705
130	0x3df85a62	0.12126614
131	0xbd0dc03a	-0.03460715
132	0x3c1789b5	0.0092491405
133	0xbe4a2126	-0.19739208
134	0x3dcf3bbb	0.101188146
135	0xbdd96435	-0.10614816
136	0x3d460144	0.04834105
137	0x3d61e016	0.055145346
138	0x3df9e6e3	0.12202241
139	0x3da44005	0.08020023
140	0x3df29f88	0.118468344
141	0x3d815d1c	0.06316587
142	0x3dfef82e	0.1244968
143	0x3d48fe1f	0.049070474
144	0x3d882a1e	0.06648658
145	0xbbfff67c	-0.0078113656
146	0x3d844c32	0.064598456
147	0xbcaa3d09	-0.020781057
148	0x3d8d2443	0.06891682
149	0x3d260e3f	0.04054093
150	0xbd842981	-0.06453229
151	0xbb0c3ce8	-0.0021398608
152	0xbc059b1d	-0.008154658
153	0x3d2c328f	0.042040404
154	0x3dadacf6	0.08480255
155	0xbd8b9168	-0.068148434
156	0x3ca855c0	0.020548701
157	0x3da97eab	0.08276113
158	0x3dc865af	0.097850196
159	0x3db38d92	0.08767237
160	0xbc7da239	-0.015480571
161	0xbd5111bc	-0.051042303
162	0x3ca96d75	0.020682076
163	0x3e2965a7	0.16542684
164	0x3d873c2b	0.06603273
165	0xbd5e6271	-0.0542931
166	0xbd59e68f	-0.053198393
167	0xbd90ccdd	-0.070703246
168	0xbb8b81b5	-0.0042574056
169	0xbdc9b6cc	-0.09849319
170	0x3d7a094e	0.06104403
171	0x3dcc6c0a	0.09981544
172	0x3dbedc16	0.09319322
173	0x3d3eaf31	0.046553794
174	0x3d956cce	0.072961435
175	0xbb9ac3b4	-0.0047230367
176	0xbc835802	-0.016033176
177	0xbdb16cd2	-0.08663334
178	0xbd39a487	-0.04532292
179	0x3cd1cbd1	0.025609883
180	0xbd29cde3	-0.041456115
181	0x3db05c72	0.086113825
182	0xbda0a88c	-0.07844648
183	0x3d72bf18	0.059264272
184	0x3d53d397	0.05171546
185	0x3da40976	0.08009617
186	0x3db73a31	0.08946646
187	0xbe02b64b	-0.12764852
188	0xbbcdfb67	-0.006286073
189	0x3e13f6fa	0.14449683
190	0xbdd014c9	-0.101602145
191	0xbddfbaa9	-0.109242745
192	0xbe199802	-0.14999393
193	0x3d1b3be9	0.03789893
194	0xbdd9d396	-0.1063606
195	0x3d8a5290	0.06754029
196	0xbd15427c	-0.036440358
197	0x3d7f0bcf	0.06226712
198	0x3cde1e8f	0.02711418
199	0x3d921e75	0.071347155
200	0x3de47103	0.11154368
201	0xbcc2704c	-0.023735188
202	0x3dab605a	0.08367987
203	0xbc9c245f	-0.019060312
204	0x3d91c80c	0.07118234
205	0x3beabfe0	0.0071639866
206	0x3d2c171a	0.04201422
207	0xbd72b697	-0.059256162
208	0xbe246b38	-0.16056526
209	0xbdc28cad	-0.09499488
210	0x3d7c26fd	0.06156062
211	0x3d42d661	0.04756773
212	0x3cfd1b08	0.030896679
213	0x3c5bce5e	0.013415901
214	0x3e0b44b3	0.13600425
215	0x3b3dbaed	0.0028950528
216	0xbd61d6af	-0.05513638
217	0x3e2b4b16	0.16727862
218	0x3e005538	0.12532508
219	0x3e24277d	0.16030689
220	0xbd579eab	-0.052641552
221	0x3e0d8ed0	0.1382401
222	0x3dd886bf	0.10572576
223	0x3dd47ceb	0.10375389
224	0x3e0bdeb9	0.1365918
225	0x3dfebede	0.12438749
226	0x3dff5118	0.12466639
227	0x3d8b13d2	0.0679089
228	0xbd92612d	-0.07147441
229	0xbd22d6d7	-0.03975567
230	0x3d901945	0.0703607
231	0x3e202b41	0.156415
232	0x3e27a28d	0.16370602
233	0x3e43a611	0.19106318
234	0xbd047ceb	-0.032345694
235	0xbd931d88	-0.07183367
236	0x3e086f36	0.13323674
237	0xbd873571	-0.0660199
238	0x3d6371fb	0.055528622
239	0xbbe98f1a	-0.0071276547
240	0x3e190c03	0.14945988
241	0x3da0a77d	0.07844446
242	0x3d1ab0d1	0.03776628
243	0x3dbfcab6	0.09364836
244	0x3e13ba89	0.14426626
245	0x3debddd1	0.115169175
246	0xbd15c27a	-0.03656242
247	0xbd67b808	-0.05657199
248	0xbceec35c	-0.029145889
249	0x3e179bff	0.14805602
250	0x3dd77f6e	0.10522352
251	0x3ddb3888	0.10704142
252	0xbc6d0b99	-0.014468097
253	0x3d2ea211	0.042635027
254	0xbdb90adb	-0.09035274
255	0x3d861dab	0.065486275

conv.6.bias f4 [64]
0	0x3cb49f36	0.022048574
1	0x3cca9cbf	0.024732945
2	0x3b3e6d80	0.0029056966
3	0x3cb99a8f	0.022656707
4	0x3cad0e04	0.021124847
5	0x3ccaf553	0.024775183
6	0x3bc11b97	0.0058931815
7	0x3cd2f44a	0.025751252
8	0x3c7da545	0.015481298
9	0x3cdd7804	0.027034767
10	0x3cede8da	0.029041696
11	0x3cb93de4	0.02261252
12	0x3cd70e4b	0.026251933
13	0x3c965169	0.018349366
14	0xae81e3f2	-5.906732e-11
15	0xb9eda10a	-0.00045324146
16	0x3cbe911b	0.023262551
17	0x9fbec761	-8.0797975e-20
18	0x3cff14ce	0.03113785
19	0xb3a03bf6	-7.4614874e-08
20	0x3c1853a5	0.009297286
21	0x3c8b414a	0.016998906
22	0x3cd9fc55	0.02660958
23	0x3cbce45c	0.023058109
24	0x3d0b4d67	0.034009364
25	0x3cfe9eb2	0.031081531
26	0xb97dc8c0	-0.00024202745
27	0xbd8a1fc1	-0.06744338
28	0x921fe00c	-5.0447713e-28
29	0x3d0eaecd	0.03483467
30	0x3c9fc6f7	0.019504054
31	0x3cd9d192	0.026589189
32	0xbb71921e	-0.0036860774
33	0x3ca13db8	0.01968275
34	0xa4e6aa7b	-1.00035405e-16
35	0xa6f02849	-1.6664265e-15
36	0x3bd331af	0.0064451317
37	0x3cf3a975	0.02974389
38	0x3cd214ed	0.025644744
39	0x3ca18720	0.019717753
40	0x3e8622e8	0.26198506
41	0x3ab86682	0.0014068636
42	0x3cd7c653	0.026339686
43	0x3cb3e5d0	0.02196017
44	0x3cb545a6	0.022127938
45	0x9864b218	-2.9558224e-24
46	0x3c30de81	0.010795237
47	0xbb3bb5c2	-0.0028642272
48	0x3cff999c	0.031201176
49	0x3bda8939	0.0066691902
50	0x3a75467b	0.0009356511
51	0x3c4caa36	0.012491753
52	0x3cbf57d4	0.02335731
53	0x3ce41236	0.027840715
54	0x3a9a6a64	0.0011780974
55	0x3d0b23f7	0.033969846
56	0x8ec5c9d0	-4.8758588e-30
57	0x3cce0c9d	0.025152499
58	0x3cb6c8bb	0.022312513
59	0x3d06e641	0.03293443
60	0x3ccbd405	0.024881372
61	0x3cd4fe35	0.026000122
62	0x3cc7d2dc	0.024392538
63	0x3ce8dc0c	0.028425239

head.0.weight f4 [128, 64]
0	0x97e1e5bb	-1.4598276e-24
1	0x9531ac7f	-3.588094e-26
2	0x000e2fc8	1.302838e-39
3	0x0005c323	5.2918e-40
4	0x8e532c79	-2.602917e-30
5	0x8d8fe581	-8.8683065e-31
6	0x80082e02	-7.51188e-40
7	0x0a65c998	1.10638645e-32
8	0x80498225	-6.750678e-39
9	0x968e2313	-2.2963472e-25
10	0x005ac2f1	8.335126e-39
11	0x89ba13f4	-4.4796635e-33
12	0x9c87f132	-8.995898e-22
13	0x00317b0c	4.54408e-39
14	0x81171bf4	-2.7754375e-38
15	0x801d17fe	-2.671836e-39
16	0x0011a4ea	1.620363e-39
17	0x00281244	3.679972e-39
18	0x005bed37	8.442127e-39
19	0x81170ce0	-2.7743557e-38
20	0x00494ed0	6.732264e-39
21	0x0003608c	3.10141e-40
22	0x80669aef	-9.4228e-39
23	0x00341142	4.781637e-39
24	0x80241d1e	-3.316523e-39
25	0x800772fd	-6.84098e-40
26	0x800ac03e	-9.87318e-40
27	0x000143d0	1.16162e-40
28	0x002c4fb8	4.06936e-39
29	0x0001c159	1.61196e-40
30	0x8013c5d5	-1.815843e-39
31	0x9af854bb	-1.02707285e-22
32	0x00304d3a	4.435807e-39
33	0x0026c9cb	3.562139e-39
34	0x000eeca4	1.370588e-39
35	0x001e51b6	2.784377e-39
36	0x804c7d23	-7.024388e-39
37	0x08073882	4.069151e-34
38	0x803a68ea	-5.364095e-39
39	0x8042d567	-6.137697e-39
40	0x003912ba	5.241341e-39
41	0x001b39b1	2.500254e-39
42	0x800333da	-2.94107e-40
43	0x8007274e	-6.56948e-40
44	0x99b1a036	-1.836608e-23
45	0x000ef252	1.372625e-39
46	0x001ec3ed	2.82535e-39
47	0x000a70ee	9.58867e-40
48	0x0019a2e1	2.354317e-39
49	0x801b6f3d	-2.519463e-39
50	0x003e6f63	5.733759e-39
51	0x800ba5d0	-1.069673e-39
52	0xa3996986	-1.6632984e-17
53	0x005af44f	8.352836e-39
54	0x00184dba	2.231935e-39
55	0x003c7ea1	5.555556e-39
56	0x80310d3e	-4.50469e-39
57	0x80597f19	-8.218953e-39
58	0x800833da	-7.53285e-40
59	0x0055e101	7.886733e-39
60	0x00179bfb	2.168172e-39
61	0x0a4b791b	9.796872e-33
62	0x9f41be1c	-4.1026594e-20
63	0x97ab62d4	-1.1075564e-24
64	0xb47ddb93	-2.3642342e-07
65	0xb220a562	-9.350829e-09
66	0x8009a6c6	-8.86347e-40
67	0x0585140e	1.2514627e-35
68	0xb2e19f68	-2.6265937e-08
69	0xb2d82b3f	-2.5165376e-08
70	0x0038ebef	5.227425e-39
71	0xb006167d	-4.8780874e-10
72	0x00023eb1	2.0616e-40
73	0xb3b7cadd	-8.558502e-08
74	0xb16f6112	-3.4834255e-09
75	0xb4b8c7d5	-3.4418068e-07
76	0xb443ee51	-1.8247489e-07
77	0x8037c2a5	-5.120778e-39
78	0x004526c0	6.35055e-39
79	0x0021bfe8	3.099414e-39
80	0xaea3d83c	-7.450793e-11
81	0x8035de0f	-4.946941e-39
82	0xaeb019c3	-8.0081296e-11
83	0x8015d1d2	-2.003815e-39
84	0x805555f1	-7.836847e-39
85	0x0047d0a5	6.595168e-39
86	0xaf54d188	-1.9355728e-10
87	0xac8cf27a	-4.0059596e-12
88	0xad108060	-8.213957e-12
89	0x9eb9b290	-1.9661489e-20
90	0x0004a0a7	4.24973e-40
91	0x80134a5b	-1.771548e-39
92	0x8097bae0	-1.3934198e-38
93	0xb05252ef	-7.651541e-10
94	0xac86865f	-3.8234273e-12
95	0xb58fb491	-1.0706882e-06
96	0x801f1e7a	-2.857833e-39
97	0xaed33259	-9.6041126e-11
98	0x8000e7f0	-8.3203e-41
99	0x00183382	2.22253e-39
100	0x802d6647	-4.169288e-39
101	0xb18c85af	-4.0897343e-09
102	0xac0256e4	-1.8522345e-12
103	0xb055ad73	-7.7735435e-10
104	0x047a1203	2.939563e-36
105	0x003c9b4d	5.565841e-39
106	0x96f4c943	-3.954734e-25
107	0xa9aad3b6	-7.5862426e-14
108	0xb546abde	-7.401085e-07
109	0x80c86888	-1.8404598e-38
110	0x804fa56d	-7.314348e-39
111	0x8040921b	-5.929885e-39
112	0xa9e3ac73	-1.011074e-13
113	0xa132a98a	-6.053313e-19
114	0x00374852	5.076896e-39
115	0x80028e8e	-2.3481e-40
116	0xb5a2975f	-1.2113995e-06
117	0xad350d34	-1.02915905e-11
118	0x8028f33c	-3.760676e-39
119	0xab49bbb1	-7.167002e-13
120	0x801e3ae3	-2.77619e-39
121	0xb0ab97aa	-1.2484993e-09
122	0xa6f50b81	-1.7003408e-15
123	0xb1b8c0bb	-5.3770157e-09
124	0x805875a3	-8.123724e-39
125	0xb2e3546c	-2.6464669e-08
126	0xb65e6767	-3.3140766e-06
127	0xb45b67ea	-2.0433768e-07
128	0xbdc4cea6	-0.096097276
129	0x3e2c64f8	0.16835392
130	0x3d46a6f4	0.048499063
131	0xbe3ba6ef	-0.18325399
132	0x3d1e4517	0.038640108
133	0x3d74c01f	0.059753533
134	0x3dd43d74	0.10363284
135	0xbd026c21	-0.0318414
136	0x3e11d4d4	0.14241344
137	0xbb595605	-0.0033162844
138	0x3e5969b9	0.21231736
139	0x3c9a94ec	0.01886984
140	0xbd16d731	-0.036826316
141	0x3e819b5d	0.25313845
142	0x2e15dbfe	3.407407e-11
143	0xb7f59834	-2.9277151e-05
144	0xbda12564	-0.0786846
145	0x00074c4c	6.70219e-40
146	0x3e69736f	0.2279794
147	0x9a029739	-2.7005527e-23
148	0xbdf1af2c	-0.118009895
149	0x3d1e40a3	0.03863586
150	0xbdd2f8d9	-0.1030137
151	0xbd64d755	-0.05586942
152	0xbd5547cf	-0.052070435
153	0xbc4d19dd	-0.012518373
154	0x389d8c25	7.512447e-05
155	0xbb7a62dd	-0.00382059
156	0x838fa503	-8.442669e-37
157	0x3d833be2	0.06407906
158	0x3c96e3d8	0.018419191
159	0xbe132e5e	-0.14373156
160	0x3932056d	0.00016977424
161	0xbda266da	-0.07929774
162	0x221bf252	2.11347e-18
163	0xa47e67d6	-5.5165423e-17
164	0xbd8bff64	-0.06835821
165	0x3d1a0ee1	0.037611846
166	0x3dceb840	0.10093737
167	0x3ec34e6d	0.38145772
168	0xbe82568a	-0.2545665
169	0x3d26815e	0.040650718
170	0xbc14eba1	-0.009089381
171	0xbbd01ad4	-0.0063508544
172	0x3e2aebf1	0.16691567
173	0x1538cdc9	3.732084e-26
174	0x3db16558	0.08661908
175	0x3bb3a71d	0.005482568
176	0x3d9b5b37	0.07585757
177	0xbe04fd77	-0.12987314
178	0x3c33bb07	0.010969884
179	0x3da05448	0.078285754
180	0x3e046900	0.1293068
181	0x3dae1017	0.08499163
182	0x3c0a5b30	0.008444592
183	0xbcb53d77	-0.022124035
184	0x07e2fdb7	3.415382e-34
185	0xbc0290a6	-0.007969057
186	0xbdb597ef	-0.0886687
187	0xbdbfe214	-0.09369293
188	0x3d6f6187	0.05844262
189	0x3e037e66	0.12841186
190	0x3cd08d60	0.025458038
191	0x3e3722d4	0.1788438
192	0x3cbb36be	0.022853252
193	0xbd17e2d6	-0.037081562
194	0x3dd2411e	0.10266326
195	0x3d6acaaf	0.0573222
196	0x3e7bb6e6	0.24581489
197	0x3c5105c8	0.012757726
198	0x3e237120	0.15961123
199	0xbde3f849	-0.11131341
200	0xbd835630	-0.06412923
201	0x3dba6b10	0.09102452
202	0x3e0843e8	0.13307154
203	0x3d71252f	0.05887335
204	0x3e3604a3	0.17775206
205	0x3e80017b	0.2500113
206	0x2c92f78a	4.177052e-12
207	0xb50342b2	-4.889836e-07
208	0x39206f18	0.00015300175
209	0x0000dd28	7.9336e-41
210	0x3d80505d	0.06265328
211	0x18f2e360	6.2785124e-24
212	0x3ddb3014	0.107025295
213	0x3e448a01	0.1919327
214	0xbe1c5f7e	-0.15270802
215	0xbd1131b0	-0.035447776
216	0x3dcca26a	0.099919155
217	0x3e63abc9	0.222335
218	0x38b1de5f	8.4814375e-05
219	0xbd2cbb12	-0.04217059
220	0x84489cc3	-2.3581868e-36
221	0xbd7bd487	-0.06148198
222	0x3e556100	0.20837784
223	0xbe138abd	-0.14408393
224	0x37c9224a	2.3977034e-05
225	0x3d7b0d06	0.061291717
226	0x2205b256	1.8119271e-18
227	0xa5083937	-1.1815505e-16
228	0x3d56d953	0.05245335
229	0xbd1db339	-0.038501
230	0xbda6d1ef	-0.081455104
231	0xbdbbed76	-0.091761515
232	0xbe83ac6f	-0.25717494
233	0x3d35b911	0.044365946
234	0x3e603866	0.21896514
235	0xb8ee7e50	-0.00011372252
236	0x3db80360	0.08985019
237	0x14b5345b	1.829698e-26
238	0x3db1eff2	0.08688344
239	0x3b9b9289	0.004747693
240	0x3e385a79	0.18003263
241	0xbe1a73a3	-0.15083174
242	0x3c6afab1	0.014341996
243	0x3cc5018c	0.02404859
244	0xbd8698b7	-0.06572097
245	0xbdf4dbd6	-0.11955993
246	0x3dc530f6	0.09628479
247	0xbded9942	-0.11601497
248	0x895b62c0	-2.6407598e-33
249	0xbe1ae4f3	-0.151264
250	0x3dfdbd3e	0.12389611
251	0x3e043a6d	0.12912913
252	0xbcad656b	-0.021166524
253	0x3e32e114	0.17468673
254	0x3d394edd	0.045241226
255	0x3e0559e5	0.13022573

head.0.bias f4 [128]
0	0x8070a998	-1.0346414e-38
1	0xa6a41669	-1.138586e-15
2	0xbb6b8d59	-0.0035942404
3	0x3b0a145b	0.0021069262
4	0xbba11aa7	-0.0049165073
5	0xbc6bc57b	-0.014390345
6	0xbb0f72bf	-0.0021888462
7	0xbc09b20c	-0.008404266
8	0x9e091317	-7.256667e-21
9	0xba40e137	-0.00073577784
10	0xbc639839	-0.013891273
11	0xbc32fef9	-0.010925048
12	0x8035df9b	-4.947496e-39
13	0xbc57c7b8	-0.013170175
14	0x38a1b23b	7.710276e-05
15	0xbc3caad6	-0.01151534
16	0xbc7aa6d6	-0.015298566
17	0xbbd35b1a	-0.006450069
18	0xbc14f8a8	-0.009092487
19	0xa2a7404c	-4.5333518e-18
20	0xbc092829	-0.008371391
21	0xb3ba2cb6	-8.669433e-08
22	0x3d177392	0.03697545
23	0xbc08aee8	-0.008342482
24	0x931286d7	-1.8494272e-27
25	0xbbe54ba3	-0.006997542
26	0xbc7046ec	-0.014665347
27	0xbb39d490	-0.0028355457
28	0xbbf99129	-0.0076161814
29	0xbbb4c90c	-0.0055171307
30	0xbc2c19da	-0.01050421
31	0xbdb50690	-0.08839142
32	0x39c3263e	0.0003722179
33	0xbc55d956	-0.013052305
34	0x3b074dcf	0.0020645743
35	0xbc6c8feb	-0.01443861
36	0xbc633c37	-0.013869337
37	0xbb49c2ca	-0.003078627
38	0xbbacc66a	-0.0052726762
39	0xbb5691da	-0.0032740743
40	0xbc55a24a	-0.013039181
41	0xbbc1f976	-0.0059196306
42	0xb9986737	-0.000290686
43	0x3c833934	0.016018488
44	0xb22ef434	-1.0183658e-08
45	0xbb0110b9	-0.0019693805
46	0x004201c3	6.061775e-39
47	0x3d76025d	0.060060848
48	0x3c1d86c5	0.009614651
49	0x3b2c64fa	0.0026305304
50	0xbc362df6	-0.011119356
51	0x8062a2f7	-9.05834e-39
52	0x0015db39	2.007188e-39
53	0xbaf5b8a0	-0.0018747039
54	0xbc41f996	-0.011839291
55	0xade980b0	-2.6546182e-11
56	0x3d3f1604	0.046651855
57	0xa3abd834	-1.8631423e-17
58	0xb9b11870	-0.00033778278
59	0xb61553c6	-2.2251493e-06
60	0xad1f17d8	-9.043398e-12
61	0x232a12e3	9.219718e-18
62	0xbc0ac01f	-0.008468657
63	0xbbd20dd3	-0.0064103394
64	0xbb3bb20e	-0.0028640064
65	0x3a45d1fe	0.0007546245
66	0xbbfa4b97	-0.0076384055
67	0xbbf77e37	-0.007552888
68	0xbc12483c	-0.008928355
69	0x3ac0a692	0.0014698079
70	0xbbbbaebd	-0.0057276175
71	0xac339b05	-2.5523483e-12
72	0xba004c55	-0.0004894187
73	0xbc1dbc12	-0.009627359
74	0xbc030498	-0.007996701
75	0xb9925b76	-0.00027915434
76	0xbbc62fe1	-0.006048188
77	0x3e61a351	0.22034957
78	0xbb50b948	-0.0031848717
79	0x3a49c4c2	0.00076968607
80	0xbaa02707	-0.0012218662
81	0xbaa48b25	-0.0012553675
82	0xa5dfd8d2	-3.8831257e-16
83	0xbbf325a3	-0.007420258
84	0xbc45e9f9	-0.012079709
85	0xbc3b58ec	-0.011434775
86	0xaa7d137f	-2.2477678e-13
87	0x92398668	-5.8541375e-28
88	0xbc071f20	-0.008247167
89	0xbadaf95b	-0.0016706394
90	0xbbc15651	-0.0059001823
91	0x8090aa5c	-1.3285425e-38
92	0xb0103aee	-5.247064e-10
93	0xbc0bff65	-0.0085447775
94	0xbd83e302	-0.06439783
95	0xbbd79359	-0.0065788445
96	0xb82d474b	-4.131281e-05
97	0x3b2532de	0.002520732
98	0xba6a2232	-0.0008931487
99	0x3c189a45	0.0093141245
100	0xbc27def3	-0.010246026
101	0xb70a8199	-8.255615e-06
102	0x3cc48523	0.023989266
103	0xbc0ad4c8	-0.008473583
104	0xbc508ee5	-0.012729381
105	0xbc520247	-0.012817926
106	0xbb9be8e6	-0.0047579883
107	0xb163d347	-3.3152945e-09
108	0xbbf89dbc	-0.007587163
109	0xb92d3cb9	-0.00016521187
110	0x8c8f7cf0	-2.2107833e-31
111	0xbc8ec2be	-0.017426845
112	0xb61a7623	-2.3016553e-06
113	0xbc1003a3	-0.00878993
114	0x3b46b003	0.0030317314
115	0xa94cd2d7	-4.5479974e-14
116	0xbba97a20	-0.005172029
117	0xb567d333	-8.636154e-07
118	0xb6cef901	-6.1682663e-06
119	0x3d05abc2	0.032634504
120	0x001d6f79	2.703218e-39
121	0xbc02f873	-0.007993805
122	0xbc2df024	-0.010616336
123	0x3f5a5fa0	0.8530216
124	0xbbdc1a1e	-0.0067169806
125	0xbc6f9e2b	-0.0146251125
126	0xbb81d1c4	-0.0039617736
127	0x0e3c983c	2.3246087e-30

head.3.weight f4 [1, 128]
0	0xb9e23840	-0.0004314799
1	0xbc6bfa49	-0.014402934
2	0x3d096a75	0.03354879
3	0x3d2afab4	0.041742995
4	0x3c506582	0.012719514
5	0x3d0fa357	0.035067882
6	0x3d16a383	0.03677703
7	0x3d0e7f43	0.034789335
8	0xbc2a1002	-0.010379793
9	0x3cbe4718	0.02322726
10	0x3cf4b114	0.029869594
11	0x3ccdc003	0.025115972
12	0x36c27bbc	5.796055e-06
13	0x3cde6e68	0.027152255
14	0x3d0f3547	0.03496292
15	0x3d03b004	0.032150283
16	0x3ccc2714	0.024920978
17	0x3cee8dc5	0.029120335
18	0x3cf661cb	0.030075928
19	0xb7672cee	-1.3779134e-05
20	0x3ce7bde9	0.028288798
21	0xb7b59ac5	-2.1648952e-05
22	0x3d188e42	0.037245043
23	0x3cf81b44	0.030286439
24	0xb915b954	-0.00014278787
25	0x3d240776	0.040046178
26	0x3cee6723	0.029101914
27	0x3cdfd431	0.02732286
28	0x3d0d6150	0.034516633
29	0x3ce20fe1	0.027595462
30	0x3cf69f7f	0.03010535
31	0x3d21c4d0	0.039494336
32	0x3d092949	0.03348664
33	0x3cee81db	0.029114654
34	0x3d1e3cf4	0.03863235
35	0x3d0d6cb3	0.03452749
36	0x3d07fa73	0.03319783
37	0x3d20e8bb	0.03928445
38	0x3d0b6026	0.03402724
39	0x3d12970e	0.03578859
40	0x3cd8e66a	0.026477057
41	0x3cf44aa7	0.029820753
42	0x3d062af7	0.03275582
43	0x3d220377	0.039554086
44	0x3cafa21d	0.021439606
45	0x3d0a017b	0.033692818
46	0x39387c59	0.0001759393
47	0x3d145cfa	0.03622148
48	0x3d2a058d	0.0415092
49	0x3d01375e	0.031546943
50	0x3cfd1b9a	0.03089695
51	0x38050017	3.1709755e-05
52	0x185155fd	2.705603e-24
53	0x3cff7c68	0.031187251
54	0x3d0bf0d1	0.034165207
55	0x3c91863c	0.017764203
56	0x3d1de7de	0.038551204
57	0xb451aadd	-1.9526802e-07
58	0x3cf9d273	0.030495858
59	0xba6de5a6	-0.0009075053
60	0xba2d537d	-0.0006611867
61	0x368f94c9	4.279053e-06
62	0x3cfd4c92	0.0309203
63	0x3d0eae1f	0.034834024
64	0x3d0fc92b	0.035103958
65	0x3ba42862	0.005009697
66	0x3cc9904e	0.024604943
67	0x3d15c0ff	0.03656101
68	0x3cf4cc4a	0.029882569
69	0x3d0ae829	0.03391281
70	0x3ce58403	0.02801705
71	0xbbfbe541	-0.0076872413
72	0xbcee5806	-0.029094707
73	0x3d34bfcb	0.04412822
74	0x3cf5e8d0	0.03001824
75	0x3bf97c63	0.007613705
76	0x3d043457	0.032276478
77	0xbef3af0b	-0.47594485
78	0x3d027bab	0.03185622
79	0xba5f0fb7	-0.00085091166
80	0x3d0a82b1	0.033816043
81	0x3cc90e14	0.024542846
82	0x3b569296	0.003274118
83	0x3d1624fc	0.036656365
84	0x3d1eb763	0.03874911
85	0x3d1a04f9	0.0376024
86	0x3a68d78e	0.0008882218
87	0xbb108627	-0.0022052617
88	0x3d076fe4	0.03306569
89	0x3cfe161b	0.0310164
90	0x3d0e651e	0.0347644
91	0xb1ad6af3	-5.0471214e-09
92	0x3cca8369	0.024720864
93	0x3cfff8c4	0.03124655
94	0x3d2c759e	0.042104356
95	0x3d178a32	0.036997028
96	0x3cd5f9ab	0.026120028
97	0x3d0c5a60	0.034265876
98	0x3b9b57bd	0.004740684
99	0x3d0c3cd1	0.034237687
100	0x3cee1eb1	0.02906737
101	0xaa8310df	-2.328198e-13
102	0x3d012abe	0.031534903
103	0x3cc2ea3a	0.023793329
104	0x3cfb75a2	0.03069574
105	0x3d21562d	0.039388824
106	0x3d085da8	0.033292443
107	0x3b999139	0.0046865013
108	0x3d182cf3	0.037152242
109	0x3a19e6b2	0.0005870863
110	0x3b849195	0.004045675
111	0x3d01e670	0.031713903
112	0xbb472250	-0.0030385442
113	0x3d06cf92	0.0329128
114	0x3d18ccab	0.03730456
115	0x3c7f2302	0.015572311
116	0x3d0eef63	0.034896266
117	0x3ba9b057	0.005178492
118	0xbcae417d	-0.021271462
119	0x3d212e2a	0.039350666
120	0xba570b6b	-0.00082033005
121	0x3d039335	0.03212281
122	0x3cdcebbc	0.026967876
123	0xbf4a5d52	-0.79048645
124	0x3cc53204	0.0240717
125	0x3cf0af27	0.029380394
126	0x3d0b7a62	0.03405226
127	0x3b9740bd	0.0046158717
