value_search/checkpoints/best_mlp.pt (torch, 414427 bytes, 7 tensors)

net.0.weight f4 [256, 14]
-0.06900481 0.0065244543 0.07130569 -0.046116143 -0.13134839 0.13276787 0.036991715 0.17940277
0.08670393 -0.030887028 -0.17082846 0.00561182 -0.08497693 -0.17922382 -0.019801745 0.038425736
-0.049147107 -0.048617158 0.037434217 -0.012360949 0.0943724 -0.0060625933 0.048117187 0.06097895
0.027379153 0.039938066 0.058727395 -0.060695782 0.079610065 -0.028210603 0.003595059 -0.2101981
0.023960253 -0.06378402 0.00035599925 0.0054717236 0.12977174 0.14660168 0.031258956 0.16153443
-0.14571431 -0.13448454 -0.14866164 -0.0720708 -0.10128745 0.12964714 -0.12203006 -0.13692446
-0.12983297 0.0608971 0.09825356 0.03880391 0.07296276 -0.00868224 -0.022630256 0.055324424
0.051835533 0.06484579 0.061648987 -0.053439505 0.04906345 0.18859741 0.04248903 0.0900581
0.1778949 -0.11029744 -0.07479744 0.10699177 0.09936612 -0.07547949 -0.015212508 -0.16771655
0.099053346 0.05830272 -0.08503571 -0.103326276 0.03914716 0.07540995 0.18703036 0.056520004
-0.08694478 -0.10855051 -0.20860599 -0.02506203 -0.04693879 0.15135969 0.007314222 -0.0014013866
0.08298836 0.03887183 -0.090521306 -0.25126806 -0.18307233 0.114872955 0.12310197 0.06785821
-0.10283085 0.14674003 0.16429451 0.1119598 -0.07538731 -0.075119026 0.058320742 -0.14071067
-0.070464 -0.07896436 -0.08632938 0.1166327 -0.06897375 0.020922497 0.019045895 -0.014777127
0.04535946 -0.001097595 0.08911232 0.032138143 -0.07537864 0.11083467 -0.15775156 0.001874295
-0.20502004 -0.0294194 0.06721037 -0.14964621 0.004060084 0.05593521 0.026491627 -0.019845178
-0.046533607 -0.02360546 -0.050955802 0.010713805 0.04722173 -0.063125424 -0.029640008 -0.08955133
-0.003262775 -0.007040351 0.1773255 -0.08689259 0.14295807 0.03393417 0.119757734 0.055560786
0.061287507 -0.014605043 0.008540949 0.044575248 0.020464456 0.0054970365 0.023471244 -0.045928117
0.050428897 0.028212145 -0.1523571 -0.054318294 0.2680539 0.00015066899 -0.11854348 0.019280612
-0.021646354 0.052385096 0.056714263 -0.08592643 0.1104767 0.040623512 0.023315644 0.07881651
0.09417331 0.08927 0.05829617 0.11278722 0.051675536 -0.1422767 -0.08615688 -0.020897558
-0.013808796 0.01909365 -0.15299644 -0.068903185 0.1453496 0.102257624 -0.0030012375 -0.0074984455
0.09860026 0.021875897 -0.167971 0.040530916 0.05963832 0.15305728 0.062001556 -0.12931874
-0.02120882 -0.11393564 0.103650406 0.07289511 0.03310527 0.05068132 0.21764022 -0.017692866
0.055596523 -0.058528677 0.030366639 0.10472859 0.035002463 0.15758261 -0.02350484 0.0910815
0.16100849 -0.12826242 0.010008579 -0.09115388 0.10488795 0.16657396 0.13335137 0.099363744
-0.09153421 -0.047738567 -0.05944683 0.10116348 -0.02623568 0.037338167 -0.0009626723 -0.008051585
-0.21670099 -0.015749762 0.021480244 0.03841795 0.1260245 0.062033184 -0.17133404 -0.04191981
-0.08848601 0.023547923 -0.012326668 0.06878871 -0.08115995 0.06422093 -0.053808182 0.02353471
0.067120686 0.017061196 0.1001741 -0.09350906 0.085851036 0.043760985 -0.006111588 -0.15246494
0.044902805 -0.01854677 -0.010613675 -0.05816969 0.112989664 -0.0031840878 0.04365728 0.02942145
00000000: 6552 8dbd 17cb d53b b808 923d 48e4 3cbd
00000010: 3180 06be 4df4 073e a084 173d 5cb5 373e
00000020: d491 b13d cb06 fdbc a8ed 2ebe 5ce3 b73b
00000030: 6208 aebd 7386 37be 4537 a2bc 4e64 1d3d
00000040: 7a4e 49bd c922 47bd 9f54 193d 9485 4abc
00000050: 5146 c13d b8a8 c6bb 8716 453d 10c5 793d
00000060: 3f4a e03c 1996 233d 238c 703d 249c 78bd
00000070: 9a0a a33d ec19 e7bc 159b 6b3b 2c3e 57be
00000080: 4b48 c43c 32a1 82bd 69a5 ba39 254c b33b
00000090: e2e2 043e c01e 163e 6409 003d 4869 253e
000000a0: 2236 15be 51b6 09be c23a 18be db99 93bd
000000b0: cb6f cfbd 38c2 043e e5ea f9bd ed35 0cbe
000000c0: eff2 04be 3d6f 793d 2a39 c93d d9f0 1e3d
000000d0: 806d 953d f43f 0ebc 1663 b9bc dd9b 623d
000000e0: 7f51 543d dfcd 843d a683 7c3d 62e3 5abd
000000f0: c2f6 483d ae1f 413e fa08 2e3d 6270 b83d
00000100: 152a 363e a0e3 e1bd 662f 99bd 801e db3d
00000110: 7780 cb3d fe94 9abd e23d 79bc e3bd 2bbe
00000120: 7bdc ca3d d5ce 6e3d 3427 aebd ba9c d3bd
00000130: c658 203d 8870 9a3d e384 3f3e 8581 673d
00000140: 1b10 b2bd bb4f debd cf9c 55be e34e cdbc
00000150: e342 40bd 09fe 1a3e 24ac ef3b bbae b7ba
00000160: cdf5 a93d 1138 1f3d 3c63 b9bd 35a6 80be
00000170: 5077 3bbe 8342 eb3d e31c fc3d 3ff9 8a3d
00000180: fb98 d2bd 0543 163e d23c 283e 2e4b e53d
00000190: a964 9abd 01d8 99bd bbe1 6e3d 7516 10be
000001a0: 6e4f 90bd 11b8 a1bd 75cd b0bd 20dd ee3d
000001b0: 1c42 8dbd a865 ab3c 2306 9c3c c31b 72bc
000001c0: d7ca 393d 2ddd 8fba 8580 b63d 49a3 033d
000001d0: 1e60 9abd 4afd e23d a089 21be e7aa f53a
000001e0: c6f0 51be f400 f1bc 97a5 893d db3c 19be
000001f0: 740a 853b 521c 653d f804 d93c 5b92 a2bc
00000200: 069a 3ebd 3d60 c1bc 08b7 50bd f588 2f3c
00000210: 936b 413d e747 81bd 9acf f2bc b066 b7bd
00000220: 48d4 55bb bfb2 e6bb d194 353e bef4 b1bd
00000230: 9a63 123e 8efe 0a3d 8b43 f53d b593 633d
00000240: 9c08 7b3d fe49 6fbc 56ef 0b3c 8994 363d
00000250: 13a5 a73c 7c20 b43b c446 c03c 1f1f 3cbd
00000260: 888e 4e3d 281d e73c 8003 1cbe dc7c 5ebd
00000270: 5c3e 893e e6fc 1d39 edc6 f2bd 60f2 9d3c
00000280: b253 b1bc c191 563d 374d 683d 32fa afbd
00000290: 9c41 e23d d764 263d 7300 bf3c 8d6a a13d
000002a0: f0dd c03d 31d3 b63d f7c7 6e3d fcfc e63d
000002b0: baa9 533d fcb0 11be 0573 b0bd 5b31 abbc
000002c0: 4a3e 62bc 496a 9c3c 19ab 1cbe 1d1d 8dbd
000002d0: 87d6 143e 726c d13d 69b0 44bb 85b5 f5bb
000002e0: efee c93d 1535 b33c 9700 2cbe bf03 263d
000002f0: 5047 743d 0cbb 1c3e 58f5 7d3d 226c 04be
00000300: 1fbe adbc 1757 e9bd aa46 d43d 084a 953d
00000310: 6499 073d 3797 4f3d 14dd 5e3e a1f0 90bc
00000320: 2eb9 633d c4bb 6fbd 75c3 f83c f17b d63d
00000330: be5e 0f3d 565d 213e 398d c0bc f088 ba3d
00000340: 69df 243e 3957 03be 06fb 233c e3ae babd
00000350: 7ecf d63d 5d92 2a3e 438d 083e 387f cb3d
00000360: 4a76 bbbd 8489 43bd 857e 73bd cc2e cf3d
00000370: 35ec d6bc e8ef 183d d85b 7cba ccea 03bc
00000380: dde6 5dbe a505 81bc 56f7 af3c 245c 1d3d
00000390: 910c 013e 8216 7e3d 3172 2fbe 1bb4 2bbd
000003a0: 2738 b5bd 93e7 c03c cbf5 49bc 18e1 8c3d
000003b0: 3037 a6bd 4386 833d f865 5cbd ddcb c03c
000003c0: 9276 893d ecc3 8b3c 1428 cd3d ae81 bfbd
000003d0: abd2 af3d b83e 333d b743 c8bb c51f 1cbe
000003e0: 01ec 373d 65ef 97bc fbe4 2dbc 5743 6ebd
000003f0: 2067 e73d 21ac 50bb fad1 323d 4105 f13c

net.0.bias f4 [256]
-0.014422975 0.0909035 0.034143005 -0.1288411 0.04073999 -0.0114051625 -0.16647793 0.038891315
-0.055380236 -0.00937602 -0.2809608 0.03593576 0.054173652 -0.024452662 0.024900509 0.013622099
-0.092067115 0.03976699 -0.008742534 0.032678872 0.0009809437 0.029488828 -0.031179955 -0.05365961
0.051993564 0.008600337 0.058479846 0.025056304 0.03285451 0.07494435 0.06804578 -0.14650616
0.042287227 0.021813938 -0.11505001 0.046394635 0.038992822 -0.0039708745 0.019142292 -0.1606431
-0.034734953 -0.2816198 0.02208127 0.09323384 -0.045652322 -0.15031812 0.006656008 0.0763848
0.09661589 0.040257458 0.08072731 0.048123315 0.0028653953 0.024611942 0.054115094 0.035457045
-0.07061912 0.033337954 0.037739303 0.015890252 -0.07714128 0.10589313 -0.07662901 -0.10157622
0.07796909 0.012830628 -0.022146713 0.010094785 0.020468019 0.026973007 0.045972627 -0.017037734
0.05620706 0.0126164695 -0.28165412 -0.09485049 0.035358023 0.052058734 0.029632889 -0.107681416
-0.030660769 0.030530669 0.0664994 0.0051002433 -0.10211061 -0.25862333 -0.16759166 0.0016612391
0.036484614 0.0540442 0.02857529 0.059650924 0.009529519 0.04996069 0.0065765465 0.00042779214
-0.002979279 0.028929964 0.046709612 0.06283377 0.06748568 -0.013892776 -0.020528141 -0.06683524
0.05108115 -0.074346185 -0.14587572 0.016334131 0.04067517 0.03582854 -0.12918271 -0.000510266
-0.25954145 0.03383632 0.05038179 0.03751666 -0.2664443 0.100466825 -0.25798228 0.05808078
0.06760603 0.054339543 -0.2074651 -0.030725585 0.07236664 -0.16310756 0.049384087 -0.0064653647
-0.023375155 -0.020864768 -0.051527 0.015357835 0.089999564 0.047277555 0.0012014995 0.08318152
-0.17389986 0.01845156 0.030102283 0.04765887 0.026204722 0.025687136 -0.15986793 0.00527496
-0.23289679 0.057812534 0.086455025 0.03207486 0.031263493 0.08702348 0.06634591 0.020526046
0.001929449 0.05251804 -0.10207086 0.013411738 0.053531796 0.0007783994 -0.1480025 -0.104741216
-0.038556553 -0.036583934 0.062002335 -0.015954183 0.027919777 0.08683623 0.063813366 0.011957328
0.048886202 0.038868964 -0.028303236 0.008481495 0.11159074 -0.13267972 -0.051920444 0.007981922
-0.05854055 0.050073817 -0.18908682 -0.032569394 0.037456412 -0.12179056 0.049563564 0.033704262
0.0063592903 0.04667039 -0.042388387 0.03539777 -0.025312794 -0.0028378435 0.00191665 0.07021286
0.017910546 -0.053438336 -0.11303146 0.05609559 0.0008947253 -0.014637706 0.064617105 -0.008778556
-0.06453253 -0.0011212185 0.05383322 0.074044436 -0.18802346 -0.06676031 0.02478725 0.030282907
0.020267397 0.015491761 0.07161229 0.031399556 0.049072757 -0.024737231 -0.12571658 0.022766642
0.049277052 0.0037771536 0.07577232 -0.018512812 -0.03464411 -0.05262971 -0.14444166 0.06735447
0.024623258 0.05619845 0.063887715 0.053518657 0.028332701 0.028597 -0.005101903 0.018496484
-0.078389645 -0.26515597 0.054105695 0.04726477 0.02647514 0.030594938 -0.22426483 -0.059833575
0.010489391 0.0285607 0.04993027 0.012445455 0.023002062 0.044360217 -0.16618876 0.0056155333
-0.08545276 0.014461063 0.007217093 0.057053763 0.07191416 0.05648231 0.0007925019 -0.1652391
00000000: 574e 6cbc 9d2b ba3d 89d9 0b3d ecee 03be
00000010: fade 263d b8dc 3abc 3179 2abe 804c 1f3d
00000020: 63d6 62bd e19d 19bc 18da 8fbe 6031 133d
00000030: 31e5 5d3d f350 c8bc 27fc cb3c 392f 5f3c
00000040: af8d bcbd b6e2 223d d83c 0fbc 48da 053d
00000050: 0293 803a 8e92 f13c 1b6d ffbc 2eca 5bbd
00000060: 34f7 543d 6ee8 0c3c 9088 6f3d e142 cd3c
00000070: 7392 063d 6c7c 993d 965b 8b3d b605 16be
00000080: 5f35 2d3d 25b3 b23c 579f ebbd 4d08 3e3d
00000090: f0b6 1f3d 1c1e 82bb 4cd0 9c3c a07f 24be
000000a0: 3d46 0ebd 7830 90be c8e3 b43c 62f1 be3d
000000b0: eefd 3abd feec 19be a41a da3b a26f 9c3d
000000c0: 8dde c53d 01e5 243d 5c54 a53d f41c 453d
000000d0: 5bc9 3b3b fc9e c93c caa7 5d3d 683b 113d
000000e0: c2a0 90bd 618d 083d 8794 1a3d 462c 823c
000000f0: 3ffc 9dbd 7fde d83d acef 9cbd 3107 d0bd
00000100: 42ae 9f3d 8e37 523c 066d b5bc 9964 253c
00000110: 8cac a73c 7ff6 dc3c cb4d 3c3d b892 8bbc
00000120: 6039 663d 4fb5 4e3c f834 90be f940 c2bd
00000130: 93d3 103d 8a3b 553d acc0 f23c 1388 dcbd
00000140: 4b2c fbbc 741b fa3c d630 883d f11f a73b
00000150: 5e1f d1bd 476a 84be 269d 2bbe efbd d93a
00000160: e470 153d 735d 5d3d ba16 ea3c 8754 743d
00000170: b321 1c3c 95a3 4c3d 1280 d73b 4a49 e039
00000180: 0240 43bb 88fe ec3c 9452 3f3d feae 803d
00000190: ef35 8a3d 879e 63bc a22a a8bc eae0 88bd
000001a0: 783a 513d d042 98bd 7260 15be 28cf 853c
000001b0: 029b 263d f2c0 123d 7948 04be 5fc3 05ba
000001c0: 9ee2 84be f497 0a3d 235d 4e3d 12ab 193d
000001d0: 636b 88be 8dc1 cd3d 4116 84be 1de6 6d3d
000001e0: 0875 8a3d 2493 5e3d bb71 54be 39b4 fbbc
000001f0: f634 943d ab05 27be f846 4a3d 69db d3bb
00000200: 417d bfbc 97ec aabc fa0d 53bd 6e9f 7b3c
00000210: b151 b83d 1ca6 413d a27b 9d3a 135b aa3d
00000220: ce12 32be ba27 973c 1099 f63c f335 433d
00000230: 49ab d63c d46d d23c 6bb4 23be 92d9 ac3b
00000240: 7f7c 6ebe d6cc 6c3d 550f b13d ee60 033d
00000250: 260e 003d 5e39 b23d 5de0 873d 3d26 a83c
00000260: 91e5 fc3a 281d 573d 870a d1bd e8bc 5b3c
00000270: 2844 5b3d 800d 4c3a f88d 17be 9082 d6bd
00000280: 7aed 1dbd 09d9 15bd 29f6 7d3d 59b2 82bc
00000290: 04b8 e43c 31d7 b13d 95b0 823d abe8 433c
000002a0: e63c 483d 1035 1f3d 30dc e7bc f8f5 0a3c
000002b0: b089 e43d 31dd 07be 88aa 54bd 9bc6 023c
000002c0: 37c8 6fbd 341a 4d3d fa9f 41be 7c67 05bd
000002d0: e56b 193d 546d f9bd 2a03 4b3d 7b0d 0a3d
000002e0: 9861 d03b 7329 3f3d 729f 2dbd 41fd 103d
000002f0: c75c cfbc 1dfb 39bb 1a38 fb3a c3cb 8f3d
00000300: 23b9 923c 28e2 5abd 0a7d e7bd 7dc4 653d
00000310: 008c 6a3a fdd2 6fbc f955 843d efd3 0fbc
00000320: a229 84bd daf5 92ba 3980 5c3d 9ca4 973d
00000330: 3989 40be a1b9 88bd a20e cb3c dc13 f83c
00000340: d007 a63c 28d1 7d3c 77a9 923d d29c 003d
00000350: 8400 493d bca5 cabc d9bb 00be 1c81 ba3c
00000360: bcd6 493d 1f8a 773b 852e 9b3d 2ea8 97bc
00000370: fbe6 0dbd 4092 57bd 84e8 13be 24f1 893d
00000380: b7b6 c93c 5930 663d 90d7 823d 6136 5b3d
00000390: fb19 e83c 4144 ea3c dd2d a7bb f085 973c
000003a0: c08a a0bd 86c2 87be ef9d 5d3d b498 413d
000003b0: 65e2 d83c 3ca2 fa3c aea5 65be 0d14 75bd
000003c0: b2db 2b3c 21f8 e93c af83 4c3d 06e8 4b3c
000003d0: d26e bc3c 0fb3 353d 632d 2abe 8202 b83b
000003e0: db01 afbd 18ee 6c3c 5d7d ec3b 35b1 693d
000003f0: bb47 933d ff59 673d e7bf 4f3a 7034 29be

net.3.weight f4 [256, 256]
0.041281473 0.18435805 -0.09978725 -0.026242834 0.09770178 0.035186857 -0.08917571 0.056749955
-0.0009896707 -0.10179307 -0.006394305 0.12161952 0.11125883 0.10769227 0.17840903 -0.10719195
-0.06864322 0.06138217 0.10756293 -0.02887423 -0.031534117 -0.012317496 -0.10367761 0.023360923
-0.048650444 0.006970544 0.0137167545 -0.0029615362 0.0659371 -0.08585263 -0.063426524 0.0045003407
0.03757704 0.026442805 -0.061961018 -0.07126444 -0.118444175 0.0447478 0.07676947 -0.06302666
-0.05758096 -0.1110677 0.02847177 0.03600847 0.024920257 0.032354005 -0.00182976 0.05205531
-0.015798064 0.09637093 -0.06449804 0.058017828 0.040453225 0.013859139 0.03048335 0.17527555
-0.05434293 0.13512267 0.038503166 -0.0015262321 -0.022506619 -0.05925032 -0.0562436 0.012053805
0.038143214 0.04328769 -0.047476195 0.04718506 0.084030844 0.09567395 0.01834219 -0.064813785
0.17272834 -0.00059143984 -0.14872296 0.008798878 -0.031872846 -0.013027232 -0.04499656 -0.310818
-0.06672274 -0.0147377495 0.037548315 -0.119408235 -0.11725701 -0.009529578 0.07387914 -0.096494436
-0.0006787568 -0.055796202 0.121371545 -0.1152712 -0.07260193 -0.04881726 0.009529089 -0.13106254
0.15904252 -0.062151592 0.10693965 0.11136447 0.056006357 -0.05068618 -0.027456 -0.008817111
0.11338351 -0.004989095 0.0029752853 0.068801 -0.026758404 -0.05497546 0.022102011 0.098551
-0.13098525 0.040912896 0.009744859 0.029261563 0.061496813 0.020762524 -0.046729743 -0.021037823
0.062126443 -0.18019725 -0.12018859 0.05146278 -0.06596258 -0.0099961795 -0.013567647 -0.0029161035
-0.0011330817 -0.06430652 0.056146026 0.09837917 -0.055862047 0.07077575 0.010761382 0.03993299
-0.14640199 0.003704572 0.10850504 -0.109182164 0.0009245637 0.053916734 0.038924348 -0.049113493
0.00889057 0.015201054 0.012253813 0.0485344 -0.085526936 -0.12215197 0.083234675 0.009649295
-0.026215592 -0.016346352 -0.13020606 -0.0139798485 -0.07048033 -0.0003814103 -0.025941877 0.008193162
-0.0034802442 0.10952743 -0.06136586 0.055216253 0.11286316 -0.10587685 0.08044879 -0.02089404
-0.06686853 0.108878754 0.051001683 0.15900289 -0.0017050363 -0.12444797 0.0013576661 0.05520991
0.09427989 -0.0023714686 -0.20131569 -0.0035699494 0.019830603 -0.059253346 0.14200535 0.09106328
0.03263787 -0.013112079 -0.02955376 0.17773445 0.060789485 -0.009831358 0.020471811 0.09674633
0.022825465 -0.00032720552 -0.10972565 -0.018509056 -0.018330038 0.06050767 0.15379448 -0.028345611
0.06297962 0.04667113 -0.054733824 -0.13788569 0.025597839 0.03924918 -0.12621607 0.10359035
-0.057784308 0.026335195 -0.04272499 -0.041513138 -0.0982777 -0.08510944 0.020761022 -0.003264263
0.06387849 -0.0083136335 0.025606485 -0.074725926 -0.016834723 -0.063500285 -0.002295711 -0.061648905
-0.05273122 -0.063129954 -0.07544832 -0.106977105 -0.033610698 0.06668752 0.042696588 0.023998061
-0.06279621 -0.141284 0.044070873 0.002426566 -0.06142858 -0.009607074 -0.06275616 -0.0886242
0.094831765 -0.029935947 0.08838627 -0.016676271 -0.020969264 0.022369867 0.05697878 -0.08454538
0.01798752 0.083587125 -0.007042252 0.19086014 -0.07245741 0.03551216 -0.009570859 -0.033501983
00000000: c316 293d 5bc8 3c3e 425d ccbd 36fb d6bc
00000010: df17 c83d 1820 103d c1a1 b6bd a472 683d
00000020: d7b7 81ba e378 d0bd 5187 d1bb a813 f93d
00000030: abdb e33d c48d dc3d dbb0 363e 7487 dbbd
00000040: d194 8cbd df6b 7b3d f449 dc3d a689 ecbc
00000050: eb29 01bd 53cf 49bc ed54 d4bd 685f bf3c
00000060: b045 47bd 2969 e43b 3dbc 603c 5516 42bb
00000070: 080a 873d 81d3 afbd c4e5 81bd 9877 933b
00000080: 62ea 193d 959e d83c d6ca 7dbd 17f3 91bd
00000090: dc92 f2bd 7849 373d 5039 9d3d 1f14 81bd
000000a0: 03da 6bbd 7677 e3bd a13d e93c 9e7d 133d
000000b0: 9125 cc3c a285 043d 8fd4 efba f337 553d
000000c0: f16a 81bc 1f5e c53d 8c17 84bd 1aa4 6d3d
000000d0: 48b2 253d 7111 633c 38b8 f93c 6f7b 333e
000000e0: b196 5ebd 995d 0a3e 7fb5 1d3d da0b c8ba
000000f0: cd5f b8bc 77b0 72bd b05f 66bd 537d 453c
00000100: 0f3c 1c3d 6f4e 313d 6676 42bd 1f45 413d
00000110: 5d18 ac3d b4f0 c33d 5c42 963c 17bd 84bd
00000120: b3df 303e db0a 1bba d54a 18be 2b29 103c
00000130: 1a8d 02bd 2c70 55bc 504e 38bd 8923 9fbe
00000140: efa5 88bd 9a76 71bc 43cc 193d 4e8c f4bd
00000150: 7124 f0bd f221 1cbc f24d 973d e09e c5bd
00000160: 99ee 31ba 8f8a 64bd a591 f83d 4f13 ecbd
00000170: 52b0 94bd 9bf4 47bd e51f 1c3c 4235 06be
00000180: 0bdc 223e ab92 7ebd 2d03 db3d 0e13 e43d
00000190: ec66 653d 509c 4fbd 68eb e0bc a575 10bc
000001a0: 9d35 e83d 907b a3bb 01fd 423b 8ae7 8c3d
000001b0: 7134 dbbc f32d 61bd 470f b53c 1bd5 c93d
000001c0: ff20 06be 4894 273d e7a8 1f3c f2b5 ef3c
000001d0: 15e4 7b3d 2b16 aa3c b067 3fbd 8357 acbc
000001e0: 4c78 7e3d a185 38be 6f25 f6bd a3ca 523d
000001f0: 6417 87bd 04c7 23bc d64a 5ebc 191c 3fbb
00000200: ea83 94ba 23b3 83bd 60f9 653d 057b c93d
00000210: 9acf 64bd e0f2 903d 8250 303c c690 233d
00000220: 67ea 15be 68c8 723b e437 de3d e69a dfbd
00000230: 6b5e 723a cbd7 5c3d 236f 1f3d 3b2b 49bd
00000240: c1a9 113c d70d 793c 38c4 483c 02cc 463d
00000250: bf28 afbd d02a fabd f176 aa3d 1418 1e3c
00000260: 15c2 d6bc c9e8 85bc bd54 05be bc0b 65bc
00000270: fe57 90bd 06f8 c7b9 0f84 d4bc 9d3c 063c
00000280: cf14 64bb eb4f e03d c55a 7bbd 702a 623d
00000290: cd24 e73d f6d5 d8bd 56c2 a43d fa29 abbc
000002a0: 5ef2 88bd d3fb de3d 24e7 503d a7d1 223e
000002b0: 867b dfba 94de febd b7f3 b13a c923 623d
000002c0: d115 c13d a46a 1bbb b325 4ebe d0f5 69bb
000002d0: ca73 a23c a3b3 72bd da69 113e 637f ba3d
000002e0: 4aaf 053d 0cd4 56bc ba1a f2bc 0500 363e
000002f0: 65fe 783d b413 21bc 80b4 a73c f122 c63d
00000300: 78fc ba3c c88c abb9 d7b7 e0bd 4ea0 97bc
00000310: e028 96bc e4d6 773d 4d7c 1d3e 0e35 e8bc
00000320: 76fb 803d 3a2a 3f3d 9330 60bd e831 0dbe
00000330: 8fb2 d13c c0c3 203d c93e 01be 2d27 d43d
00000340: 3daf 6cbd e8bc d73c 6600 2fbd ae09 2abd
00000350: d245 c9bd dc4d aebd 0513 aa3c 3fed 55bb
00000360: bad2 823d e835 08bc b1c4 d13c e809 99bd
00000370: f9e8 89bc 700c 82bd a473 16bb 9083 7cbd
00000380: b1fc 57bd 474a 81bd a684 9abd d016 dbbd
00000390: 5fab 09bd 7793 883d 9ee2 2e3d 9597 c43c
000003a0: 4d9b 80bd c1ac 10be a983 343d 0607 1f3b
000003b0: 899c 7bbd fd66 1dbc 4d86 80bd 9b80 b5bd
000003c0: 2837 c23d 3b3c f5bc dc03 b53d ad9c 88bc
000003d0: bcc7 abbc 0341 b73c 9562 693d 2126 adbd
000003e0: 905a 933c ba2f ab3d b1c2 e6bb d770 433e
000003f0: 8d64 94bd 3375 113d 18cf 1cbc 6039 09bd

net.3.bias f4 [256]
0.13809094 0.14534432 0.1058491 0.12256376 0.10073644 0.11178256 0.1319558 0.123820096
0.14451584 0.09034524 0.13007075 0.1665184 0.10820285 0.1637112 0.020544982 0.11752223
0.1025211 -0.11331515 0.1354567 0.11619845 0.085824996 0.08653267 0.08942535 0.1213303
0.04368454 -0.21492128 0.1228926 0.13526936 -0.0075487676 0.15531096 0.10648574 0.17062683
-0.109949715 0.13423015 0.16248718 -0.011160727 0.15082453 0.17017382 0.13276306 0.08198484
0.1149443 -0.0127129145 0.09439158 0.091342784 0.029107763 0.008993657 0.097737424 0.09831812
0.12113661 0.10707878 0.09490025 0.10388553 0.14102748 0.14095281 0.11712415 0.1880306
0.1569953 0.044285357 0.121132776 -0.14475748 0.11517291 0.13232954 -0.19727527 0.10785056
-0.006089457 0.16023412 0.12255089 0.1787026 0.13272175 0.14445402 0.1166093 0.13253488
0.21710093 0.13027321 0.14058588 0.14972475 0.10780557 0.14683346 0.12756349 0.09236579
-0.15286133 -0.014660036 0.0974171 0.028696116 0.116935566 0.04699216 -0.0004214386 0.13034478
0.1196256 0.18631035 0.1355586 0.1866156 0.101367734 0.12865877 0.08024496 0.17515515
0.09737896 0.09551145 0.16789712 0.10060894 0.09138017 0.12332754 0.122966155 0.11075842
0.12751669 -0.13216127 0.12200468 0.04255301 -0.26243386 -0.17103228 0.10459374 0.10196167
0.12585641 0.121636555 0.11434354 -0.014400276 0.13774644 -0.014225433 0.12786339 0.1471778
0.11324406 0.111482106 0.18602811 0.072915465 0.11698474 -0.0040532807 0.113871135 -0.017314008
0.10123941 0.11393869 0.17379972 0.13324264 0.12272685 0.20578134 0.11115311 0.13561133
0.14627995 0.12109638 0.14217392 0.118126765 0.13430904 0.11160697 0.110692814 0.14053455
0.1524665 0.13652226 -0.10171351 -0.038937237 0.10906408 0.099402525 0.10514879 -0.017548425
0.06264412 0.12819426 0.10704527 0.1381135 0.122610435 -0.018091492 0.1418845 -0.07643067
-0.0043543684 0.22141483 -0.04811258 0.11155473 -0.229136 0.115147576 0.15263984 0.11074793
0.14327261 0.036904253 0.1422914 0.11711217 0.14763592 0.12311986 0.13714962 0.12479165
0.05232162 -0.007059441 0.07393225 0.10671005 0.16069297 0.1461688 -0.01586627 0.14417216
0.10874081 0.09838417 0.13235717 -0.0015028319 0.108737364 0.10140231 0.10289975 -0.18996038
0.119926766 -8.503904e-09 -0.15381835 0.117407955 0.13083482 0.13434504 0.10165152 0.106143214
0.14542174 0.15328899 0.17661 -0.22901994 0.00806044 0.112297215 0.059214905 0.106000856
0.14732635 0.10972844 -0.035705168 0.09317873 0.16161616 0.12495307 0.1176635 0.08070212
0.13908483 0.108959444 0.1772057 0.13110213 0.11422379 0.20083079 0.13447464 0.072194606
0.19864239 0.11179136 0.09671981 0.11825905 0.12845084 0.11756873 0.10007388 0.10951144
0.11528482 0.13590482 0.07430368 0.12742467 0.18585119 0.10645847 0.16467817 0.12040903
0.111587696 0.121740736 0.19719423 0.10222534 -0.012930068 0.11711748 0.10817869 0.024266189
0.109423876 0.10925392 0.14426462 -0.220403 0.099165 0.13218184 0.09370982 0.12407441
00000000: b667 0d3e 24d5 143e 6ac7 d83d b502 fb3d
00000010: e84e ce3d 41ee e43d 6c1f 073e 6495 fd3d
00000020: f6fb 133e ed06 b93d 4431 053e cd83 2a3e
00000030: 7599 dd3d e9a3 273e f34d a83c 7faf f03d
00000040: 95f6 d13d c611 e8bd 29b5 0a3e 74f9 ed3d
00000050: 04c5 af3d 0a38 b13d a324 b73d 057c f83d
00000060: 8fee 323d 5314 5cbe 1eaf fb3d 0d84 0a3e
00000070: a75b f7bb d609 1f3e 3215 da3d cdb8 2e3e
00000080: 512d e1bd a173 093e 0a63 263e 7bdb 36bc
00000090: bf71 1a3e 0c42 2e3e 0af3 073e abe7 a73d
000000a0: eb67 eb3d d449 50bc 5f50 c13d ed11 bb3d
000000b0: 6773 ee3c 225a 133c 8f2a c83d 035b c93d
000000c0: 7916 f83d 1f4c db3d 105b c23d f0c1 d43d
000000d0: 8269 103e ef55 103e c9de ef3d 188b 403e
000000e0: 60c3 203e 9064 353d 7614 f83d 4e3b 14be
000000f0: c6df eb3d 6581 073e 8702 4abe c1e0 dc3d
00000100: 118a c7bb 6a14 243e f6fb fa3d d0fd 363e
00000110: 36e8 073e c1eb 133e dbd0 ee3d 39b7 073e
00000120: b54f 5e3e 5766 053e bff5 0f3e 7251 193e
00000130: 2bc9 dc3d 835b 163e 01a0 023e 462a bd3d
00000140: ae87 1cbe a630 70bc 9e82 c73d 1e14 eb3c
00000150: ea7b ef3d da7a 403d 88f4 dcb9 1a79 053e
00000160: 44fe f43d 24c8 3e3e e0cf 0a3e 2918 3f3e
00000170: e399 cf3d 20bf 033e 7857 a43d df5b 333e
00000180: 9f6e c73d 829b c33d 39ed 2b3e 0f0c ce3d
00000190: 8725 bb3d 2693 fc3d aed5 fb3d 4fd5 e23d
000001a0: bc93 023e 4955 07be 97dd f93d 114c 2e3d
000001b0: bb5d 86be 1623 2fbe 3e35 d63d 48d1 d03d
000001c0: 81e0 003e 961c f93d f22c ea3d 23ef 6bbc
000001d0: 670d 0d3e ca11 69bc 9fee 023e c7b5 163e
000001e0: 80ec e73d bb50 e43d 277e 3e3e b454 953d
000001f0: b295 ef3d 62d1 84bb 4535 e93d 1bd6 8dbc
00000200: 9c56 cf3d b058 e93d 8ef8 313e c270 083e
00000210: 3758 fb3d 58b8 523e 3ea4 e33d b2dd 0a3e
00000220: 69ca 153e 6101 f83d 0a96 113e 72ec f13d
00000230: 4f88 093e 3292 e43d eab2 e23d 4ae8 0f3e
00000240: 2e20 1c3e 7ecc 0b3e 2c4f d0bd a77c 1fbd
00000250: fd5c df3d 8d93 cb3d 4058 d73d b7c1 8fbc
00000260: 8f4b 803d 5b45 033e 8d3a db3d a06d 0d3e
00000270: 2e1b fb3d 9c34 94bc 2c4a 113e af87 9cbd
00000280: 17af 8ebb 92ba 623e b211 45bd ce76 e43d
00000290: a1a2 6abe 7ed2 eb3d 9e4d 1c3e d0cf e23d
000002a0: 0eb6 123e ea28 173d d6b4 113e 81d8 ef3d
000002b0: df2d 173e 4426 fc3d f370 0c3e c492 ff3d
000002c0: 324f 563d e252 e7bb cb69 973d cc8a da3d
000002d0: b38c 243e 46ad 153e fbf9 81bc dea1 133e
000002e0: 80b3 de3d a47d c93d a388 073e acfa c4ba
000002f0: b2b1 de3d 04ac cf3d 1bbd d23d f984 42be
00000300: 2a9c f53d 9118 12b2 8f82 1dbe 9573 f03d
00000310: 90f9 053e bf91 093e ac2e d03d 9d61 d93d
00000320: 70e9 143e caf7 1c3e 40d9 343e 3484 6abe
00000330: f00f 043c 15fc e53d 548b 723d fa16 d93d
00000340: b8dc 163e 4eb9 e03d 953f 12bd 7dd4 be3d
00000350: b57e 253e 65e7 ff3d 90f9 f03d 2747 a53d
00000360: 416c 0e3e 2126 df3d 6975 353e a33f 063e
00000370: 2aee e93d 96a6 4d3e b8b3 093e c4da 933d
00000380: e968 4b3e def2 e43d 0915 c63d cd31 f23d
00000390: 9e88 033e e0c7 f03d 89f3 cc3d 8947 e03d
000003a0: 731a ec3d a22a 0b3e 872c 983d 9d7b 023e
000003b0: c64f 3e3e e606 da3d 65a1 283e 0299 f63d
000003c0: 1788 e43d 3553 f93d 49ed 493e 855b d13d
000003d0: a3d8 53bc 4adb ef3d ca8c dd3d e3c9 c63c
000003e0: a019 e03d 85c0 df3d 1bba 133e 53b1 61be
000003f0: 0517 cb3d ad5a 073e efea bf3d b91a fe3d

net.6.weight f4 [128, 256]
0.04263787 0.094715536 0.054697823 -0.008067199 0.03306763 0.07143775 -0.17183897 0.013853836
-0.060598407 -0.0151566025 0.05868536 0.0058237254 0.13414635 0.011395532 0.019956985 -0.03704076
0.12683256 -0.09030703 -0.1507345 0.00046968248 0.017994083 0.11076304 -0.08056616 -0.021408914
0.04931226 -0.16909474 0.013132715 0.15695871 -0.00010837518 0.035823364 0.019923272 0.065141894
-0.12489851 0.009340419 0.089404896 -0.02108004 -0.0054039317 0.108815156 -0.16812047 -0.063403025
0.07544934 0.0010898854 0.096587546 0.063626684 0.056415413 -0.001089566 -0.15534672 0.10134206
-0.034927893 -0.0538699 0.052676428 0.07333536 0.04942311 -0.031722266 0.040265832 -0.09831876
-0.1777118 0.10031498 0.10465326 -0.039399944 -0.019032702 -0.007053102 -0.09139817 0.05812741
3.9451007e-07 0.033196285 0.031176949 -0.1274351 0.06745802 0.099519715 0.053279236 0.17627065
-0.05399327 0.08986407 -0.035700914 -0.026801262 -0.039356813 -0.017909463 0.13448846 -0.08032608
-0.13989569 -7.636954e-05 0.06508113 0.016204355 0.015400892 0.00027603074 -1.8293374e-30 -0.059621807
0.15490751 -0.035790376 0.042557504 -0.008589506 0.079650275 0.06366818 0.07305234 0.12866312
-0.026991203 0.06280934 0.055699468 -0.10218208 0.13161404 -0.02787757 -0.04645261 0.04579966
0.11434696 -0.11139457 -0.03739218 -0.045739863 -0.2221071 -0.13071077 0.08158324 0.06559238
0.008698156 -0.076091096 -0.009049608 -4.9613216e-05 -0.01178435 2.6237889e-05 -0.11063252 -0.017540421
0.14702056 0.0530156 -0.013704927 0.056338552 -0.03572333 0.043803163 0.117394604 0.010901286
-0.09602494 -0.003114567 -0.051028818 0.024286112 0.00039623634 0.07458834 -0.021591164 0.05407612
0.02868028 -0.040821623 -0.009238035 0.18586119 0.012222844 0.081902005 -0.010546189 -0.083179705
0.149231 0.08657879 -0.06289036 -0.10717651 -0.1447792 -0.055033594 0.10367279 -0.0027778805
0.08898335 0.06687717 -0.05242996 0.055634715 0.011196309 0.0038339328 -0.07556899 0.035437014
-1.3559922e-07 0.1188538 -0.10014305 -0.033045836 -0.08804514 -0.05320706 0.0024861584 -0.05255206
-0.0022468737 0.04743546 -0.083661065 -0.057909187 -0.047855504 0.039947532 0.17446376 -0.0532997
0.012318059 7.877912e-05 0.05484259 -0.02566293 0.014424886 0.09582313 0.0004294581 -0.07368769
0.042717703 0.097945064 0.027521638 -8.594062e-08 -0.09763402 0.003154254 -0.107981734 -0.11967791
-0.06252133 -1.2193127e-38 -0.08866068 0.06390758 -0.033797495 -0.05730501 0.07945804 0.047389004
0.13912387 0.018187087 0.20474803 -0.18388323 -0.109982975 -0.10555433 0.05654552 0.068183996
0.11534819 0.1358785 -0.02665717 -0.02024351 0.10078853 0.03556238 0.12737253 -0.05481028
-0.1074807 0.025596282 -0.029668268 -0.007500383 -0.06081451 0.08423208 -0.13388339 0.06162986
-0.004671998 0.024214404 0.034836512 0.06288012 0.10640608 -0.104352 -0.060851686 0.11121161
0.05020596 -0.02669664 0.020848772 -0.036884468 0.085525304 0.047445342 -0.1193573 0.03544094
-0.049513422 0.04018637 0.07229961 -0.086912505 4.071483e-06 0.052577145 0.11311512 0.14236316
0.023500213 -0.024595972 -0.0054229405 -0.18185642 0.05107919 0.14065489 -0.019073296 -0.04358601
00000000: 0ca5 2e3d 38fa c13d d30a 603d 492c 04bc
00000010: ec71 073d f44d 923d 8ef6 2fbe 33fb 623c
00000020: 0936 78bd 6653 78bc 0f60 703d f3d4 be3b
00000030: a95d 093e 53b4 3a3c d57c a33c 0db8 17bd
00000040: 65e0 013e e4f2 b8bd 255a 1abe b73f f639
00000050: 5468 933c bcd7 e23d dfff a4bd bf61 afbc
00000060: a7fb 493d 2c27 2dbe 992a 573c c9b9 203e
00000070: 7b47 e3b8 85bb 123d 2136 a33c 1d69 853d
00000080: caca ffbd 8f08 193c ea19 b73d 0cb0 acbc
00000090: 7713 b1bb 7bda de3d c627 2cbe 72d9 81bd
000000a0: 2f85 9a3d 7cda 8e3a b1cf c53d b54e 823d
000000b0: d913 673d c5cf 8eba 3613 1fbe 6d8c cf3d
000000c0: 8d10 0fbd afa6 5cbd 3dc3 573d d930 963d
000000d0: e36f 4a3d 35ef 01bd c9ed 243d 595b c9bd
000000e0: 15fa 35be f171 cd3d 7354 d63d d661 21bd
000000f0: 78ea 9bbc b51d e7bb f72e bbbd 0217 6e3d
00000100: 0dcd d334 d4f8 073d cd66 ff3c 597e 02be
00000110: 6e27 8a3d fed0 cb3d 543b 5a3d 4b80 343e
00000120: 0c28 5dbd a70a b83d 1f3b 12bd 528e dbbc
00000130: 9c34 21bd deb6 92bc 58b7 093e 0082 a4bd
00000140: d140 0fbe 9628 a0b8 4149 853d ffbe 843c
00000150: 0654 7c3c 38b8 9039 da69 148e ff35 74bd
00000160: 13a0 1e3e ee98 12bd c750 2e3d 00bb 0cbc
00000170: af1f a33d 7664 823d 779c 953d 44c0 033e
00000180: a81c ddbc 2fa2 803d 2025 643d d744 d1bd
00000190: d5c5 063e 805f e4bc 1845 3ebd 6d98 3b3d
000001a0: bd2e ea3d d622 e4bd 8b28 19bd b959 3bbd
000001b0: 0b70 63be 0bd9 05be 1d15 a73d 4c55 863d
000001c0: b682 0e3c a6d5 9bbd cf44 14bc c917 50b8
000001d0: 2513 41bc 7019 dc37 4d93 e2bd eeb0 8fbc
000001e0: 8f8c 163e e326 593d a18a 60bc 41c3 663d
000001f0: a052 12bd f26a 333d 956c f03d 4f9b 323c
00000200: b9a8 c4bd c31d 4cbb 9803 51bd abf3 c63c
00000210: f1bd cf39 c6c1 983d f4df b0bc ec7e 5d3d
00000220: e8f2 ea3c 9334 27bd 215b 17bc 6552 3e3e
00000230: 5342 483c 3dbc a73d ecc9 2cbc 1f5a aabd
00000240: 03d0 183e 3850 b13d a9cc 80bd 5c7f dbbd
00000250: 0041 14be e86a 61bd 6652 d43d 1a0d 36bb
00000260: e73c b63d e6f6 883d ccc0 56bd 3ae1 633d
00000270: b970 373c b842 7b3b eac3 9abd 6726 113d
00000280: 3b99 11b4 9f69 f33d cd17 cdbd 125b 07bd
00000290: 0351 b4bd a5ef 59bd d1ee 223b d440 57bd
000002a0: 4940 13bb af4b 423d 7e56 abbd 2f32 6dbd
000002b0: 2204 44bd 06a0 233d a1a6 323e c950 5abd
000002c0: afd1 493c 3836 a538 a0a2 603d 113b d2bc
000002d0: 5b56 6c3c eb3e c43d e428 e139 92e9 96bd
000002e0: c2f8 2e3d 6c97 c83d 0f75 e13c 5b8e b8b3
000002f0: 58f4 c7bd 9ab7 4e3b 8725 ddbd b119 f5bd
00000300: 2f0b 80bd 7ac5 8480 bb93 b5bd fae1 823d
00000310: 3e6f 0abd a8b8 6abd e6ba a23d f91a 423d
00000320: 7d76 0e3e 16fd 943c 78a9 513e e34b 3cbe
00000330: c13e e1bd de2c d8bd 469c 673d 0da4 8b3d
00000340: ac3b ec3d bc23 0b3e 2360 dabc b8d5 a5bc
00000350: 386a ce3d dca9 113d f26d 023e bf80 60bd
00000360: d71e dcbd 4baf d13c de0a f3bc c6c5 f5bb
00000370: a318 79bd de81 ac3d ba18 09be 986f 7c3d
00000380: 8f17 99bb 495d c63c bbb0 0e3d 4bc7 803d
00000390: 6eeb d93d 80b6 d5bd 9e3f 79bd eac2 e33d
000003a0: c4a4 4d3d e9b2 dabc 0bcb aa3c 2b14 17bd
000003b0: e427 af3d 0c56 423d 9a71 f4bd 852a 113d
000003c0: 96ce 4abd 779a 243d d111 943d 2fff b1bd
000003d0: c69d 8836 225b 573d e6a8 e73d a6c7 113e
000003e0: 8583 c03c 7e7d c9bc ecb2 b1bb 9238 3abe
000003f0: 6a38 513d d607 103e 9a3f 9cbc 3e87 32bd

net.6.bias f4 [128]
0.24736425 0.157228 0.27178904 0.22969654 0.17299394 0.19837269 0.19278623 0.17914239
0.16749673 0.1670246 0.23698875 0.18853933 0.24705026 0.2241694 0.17999408 0.1876081
0.17861296 0.1722205 0.16604103 0.19201988 0.16138269 0.21110944 0.2570922 0.20208603
0.16623208 0.21735273 0.22000249 0.208079 0.2340942 0.1826965 0.22756837 0.18663934
0.24555291 0.33383766 0.2051932 0.21005696 0.18373702 0.22429413 0.18988411 0.19338354
0.18238814 0.23076253 0.24307165 0.16760169 0.1708496 0.23565422 0.17365755 0.17169347
0.1940065 0.21197271 0.16212238 0.18585333 0.1765513 0.15945278 0.24253342 0.15814623
0.14683008 0.1835841 0.23914729 0.14550203 0.17908108 0.17935382 0.17352287 0.18524794
0.23851508 0.15407203 0.1991089 0.19961494 0.118337795 0.2133774 0.21298727 0.18701757
0.15511835 0.20425236 0.17372346 0.14538288 0.19599038 0.20627733 0.17960292 0.1633035
0.1246985 0.19246474 0.17630745 0.19074024 0.17712219 0.15542534 0.15197828 0.16267516
0.19317937 0.2133177 0.24871136 0.18384127 0.19492364 0.1612789 0.1968249 0.176778
0.21130502 0.25581145 0.14260513 0.2076217 0.18182546 0.16909404 0.2790941 0.21085952
0.1740997 0.15482461 0.18318774 0.19898206 0.17975765 -0.0009460061 0.1954656 0.19431871
0.20240337 0.1578897 0.1755699 0.19493948 0.18629597 0.1764224 0.17637938 0.15988472
0.1648305 0.19255352 0.20490201 0.3114185 0.17158173 0.2524277 0.17616095 0.16948912
00000000: 0e4d 7d3e 6000 213e ef27 8b3e 9235 6b3e
00000010: 5325 313e 3622 4b3e c169 453e 1a71 373e
00000020: 4384 2b3e 7f08 2b3e 2ead 723e 7410 413e
00000030: befa 7c3e aa8c 653e 5e50 383e 561c 403e
00000040: 51e6 363e 925a 303e a906 2a3e dca0 443e
00000050: 8141 253e 132d 583e 97a1 833e a4ef 4e3e
00000060: be38 2a3e b791 5e3e 5548 613e a912 553e
00000070: 64b6 6f3e cb14 3b3e af07 693e 621e 3f3e
00000080: 3972 7b3e c5ec aa3e 2b1e 523e 2c19 573e
00000090: 8f25 3c3e 5cad 653e fb70 423e 5606 463e
000000a0: f5c3 3a3e 034d 6c3e c6e7 783e c79f 2b3e
000000b0: 33f3 2e3e 574f 713e 49d3 313e 6ad0 2f3e
000000c0: a4a9 463e 600f 593e 6903 263e 5650 3e3e
000000d0: ddc9 343e 9747 233e ae5a 783e 16f1 213e
000000e0: a05a 163e 78fd 3b3e 07e3 743e 7cfe 143e
000000f0: 0861 373e 87a8 373e fbaf 313e a3b1 3d3e
00000100: 4c3d 743e 0fc5 1d3e 34e3 4b3e dc67 4c3e
00000110: 165b f23d 9b7f 5a3e 5619 5a3e 8981 3f3e
00000120: 58d7 1e3e 8827 513e 90e4 313e 40df 143e
00000130: b4b1 483e 5d3a 533e d4e9 373e 0839 273e
00000140: ed61 ff3d 7a15 453e f189 343e 6951 433e
00000150: 855f 353e d227 1f3e 32a0 1b3e 5194 263e
00000160: d0d0 453e f56f 5a3e 31ae 7e3e e340 3c3e
00000170: 109a 473e 4c26 253e 778c 493e 4b05 353e
00000180: 5860 583e b8f9 823e 1407 123e c89a 543e
00000190: 7430 3a3e fd26 2d3e 6ce5 8e3e 8feb 573e
000001a0: 3147 323e 588a 1e3e 9195 3b3e f4c1 4b3e
000001b0: 6412 383e 65fd 77ba 2228 483e 7cfb 463e
000001c0: d442 4f3e d6ad 213e 99c8 333e 379e 473e
000001d0: 5fc4 3e3e 13a8 343e cc9c 343e d2b8 233e
000001e0: 54c9 283e c02c 453e d5d1 513e 3f72 9f3e
000001f0: 1fb3 2f3e 343e 813e 8963 343e 8e8e 2d3e

net.9.weight f4 [1, 128]
0.04517447 0.016935412 0.037031207 0.0329345 0.02186594 0.030144557 0.030102814 0.02396072
0.02146474 0.02215363 0.03613989 0.023410806 0.034928657 0.029932978 0.025732148 0.026636291
0.023321252 0.023096804 0.022515744 0.02749534 0.020472778 0.02490767 0.037685007 0.023562873
0.022424715 0.03140447 0.029668016 0.030018084 0.03373477 0.024765383 0.033252917 0.025506988
0.034898598 0.043265413 0.03036662 0.03082798 0.027528102 0.032531798 0.026872834 0.026862077
0.025116261 0.032956924 0.03422776 0.021720342 0.020955212 0.037094988 0.022373425 0.021850025
0.023766324 0.029504621 0.022701884 0.028252954 0.022527423 0.02004825 0.03527837 0.021510933
0.017277643 0.023044022 0.030866196 0.017854549 0.025056683 0.023647655 0.022805579 0.0247578
0.038886305 0.020373076 0.023955138 0.026536316 0.024796937 0.028908823 0.03265701 0.026135076
0.02034809 0.027775751 0.021937536 0.01743791 0.026568383 0.028363956 0.024355363 0.022325927
0.016433375 0.025349472 0.021753145 0.025865525 0.021467635 0.020278562 0.019340916 0.021567287
0.024236526 0.0289836 0.05000553 0.02544621 0.030778652 0.020020291 0.027214045 0.02585938
0.03474177 0.035441875 0.01742624 0.030255942 0.025680711 0.023621982 0.0489172 0.029288696
0.022001509 0.019448599 0.024908442 0.023738852 0.02492213 0.008909625 0.025703058 0.030812716
0.03207749 0.0200988 0.021408673 0.02860104 0.02329527 0.0262052 0.021613616 0.021640448
0.020276804 0.025697457 0.02985372 0.045360554 0.023567524 0.03981462 0.02219975 0.021479726
00000000: dd08 393d 22bc 8a3c 09ae 173d 54e6 063d
00000010: 3320 b33c b8f1 f63c 2d9a f63c 4649 c43c
00000020: d3d6 af3c 887b b53c 6c07 143d 05c8 bf3c
00000030: 5a11 0f3d 0136 f53c 3acc d23c 5a34 da3c
00000040: 360c bf3c 8235 bd3c f072 b83c e83d e13c
00000050: 87b6 a73c 2c0b cc3c 985b 1a3d ed06 c13c
00000060: 09b4 b73c f9a1 003d 570a f33c 7ce8 f53c
00000070: 782d 0a3d c6e0 ca3c 3634 083d 08f4 d03c
00000080: d5f1 0e3d 1337 313d 6bc3 f83c f68a fc3c
00000090: 9d82 e13c 1040 053d 6b24 dc3c dc0d dc3c
000000a0: 9ec0 cd3c d7fd 063d 6832 0c3d dcee b13c
000000b0: 44aa ab3c eaf0 173d 7948 b73c d3fe b23c
000000c0: 98b1 c23c adb3 f13c 4df9 b93c bd72 e73c
000000d0: 6e8b b83c 3a3c a43c 0d80 103d b237 b03c
000000e0: d889 8d3c d1c6 bc3c 1bdb fc3c b443 923c
000000f0: ac43 cd3c bab8 c13c c4d2 ba3c dfd0 ca3c
00000100: 3f47 1f3d 70e5 a63c 913d c43c b062 d93c
00000110: f222 cb3c 32d2 ec3c 5bc3 053d 3a19 d63c
00000120: 0ab1 a63c f989 e33c 59b6 b33c f3d9 8e3c
00000130: f0a5 d93c 875b e83c e684 c73c dde4 b63c
00000140: 499f 863c b2a9 cf3c a733 b23c f0e3 d33c
00000150: e5dc af3c 3a1f a63c d770 9e3c e1ad b03c
00000160: ae8b c63c 046f ed3c 99d2 4c3d 9274 d03c
00000170: 8323 fc3c 9801 a43c fdef de3c 0dd7 d33c
00000180: 634d 0e3d 802b 113d 79c1 8e3c 4fdb f73c
00000190: 5b60 d23c e382 c13c 675d 483d d9ee ef3c
000001a0: 823c b43c ab52 9f3c ca0c cc3c fb77 c23c
000001b0: 7f29 cc3c adf9 113c 388f d23c f36a fc3c
000001c0: b063 033d 3da6 a43c 3e61 af3c ba4c ea3c
000001d0: b9d5 be3c 4aac d63c 0a0f b13c 4f47 b13c
000001e0: 8a1b a63c 7983 d23c ca8f f43c fdcb 393d
000001f0: ae10 c13c a814 233d 40dc b53c 40f6 af3c
